d2draftnet/models/7_39b_model.pth (torch, 7600 bytes, 6 tensors)

embedding.weight f4 [127, 3]
000000 00 00 00 00 00 00 00 00 00 00 00 00 93 5c f8 3d
       0.0 0.0 0.0 0.12127032
000010 49 53 88 be c3 17 76 bf 98 2b 2a 3c 09 f0 05 c0
       -0.26626042 -0.9613001 0.01038637 -2.0927756
000020 09 f5 95 3f 5e bf 19 3d b8 e3 d1 3f 92 13 a5 be
       1.1715404 0.037536018 1.6397619 -0.32241493
000030 d8 1f b9 3f f6 14 9c 3f ab ae 55 3f 88 5b a6 be
       1.4462843 1.2193897 0.8346965 -0.32491708
000040 00 8e 0e 3f ee fa 88 3d 8e 23 c8 be 6e 8a 18 3e
       0.55685425 0.06688486 -0.39089626 0.14896557
000050 f1 a4 92 bf d1 6f 84 3e 16 88 b5 3f 4e c6 30 c0
       -1.1456586 0.2586656 1.4182155 -2.7621036
000060 70 68 51 bf 5c bf 6c bf 09 4e a8 be 0e 34 5e be
       -0.81799984 -0.9247949 -0.32872036 -0.21699545
000070 20 32 ec bd 50 a3 1c bd d1 8d 78 3f 01 68 68 be
       -0.11532998 -0.038241684 0.97091395 -0.22695924
000080 c4 29 8c 3e bc 03 37 3e 9d d5 88 3f cc d3 d4 3f
       0.27375615 0.17872518 1.069019 1.6627135
000090 46 6d 81 bd a8 7f 3b be 3a 88 04 bf 35 d9 9c bf
       -0.063196704 -0.18310416 -0.51770365 -1.2253786
0000a0 aa c3 1e c0 14 ca 85 3f 69 c2 60 3f 74 ac 44 bf
       -2.4806924 1.0452294 0.87796646 -0.7682564
0000b0 26 f6 fb 3e bf 10 7f 3f 69 82 23 be 86 4b 67 3f
       0.49211234 0.9963493 -0.15967716 0.90349615
0000c0 8b 60 96 3f 26 b5 3a 3d 3b 03 51 3f e3 7d e9 3f
       1.1748213 0.045582913 0.81645554 1.8241543
0000d0 31 f0 a7 3f 2e 8d df be 07 77 00 bf c1 4d 16 3f
       1.3120176 -0.436624 -0.5018162 0.58712393
0000e0 1e f6 91 3f 81 5e c7 bf 7b 25 a2 3e eb 2b 86 3f
       1.1403234 -1.5575715 0.3166922 1.0482153
0000f0 89 04 18 3f 16 b3 55 be 5d 58 b8 be 7f 77 00 c0
       0.5938192 -0.20869097 -0.36004916 -2.0072935
000100 f5 82 c7 3f d7 e3 fc bd c9 c8 dc 3d 8f 94 13 c0
       1.558684 -0.123481445 0.10780484 -2.3059423
000110 ee 46 10 3f cf db 9e 3f 0b 1b a2 3f 30 bd ef bf
       0.5635823 1.241083 1.2664503 -1.872961
000120 22 49 fc 3f ac 69 a8 3e f7 e3 cc 3f 20 98 f9 bd
       1.9709818 0.3289312 1.6007069 -0.12187219
000130 6f 11 a3 be 6f ca 84 be 24 8d 2e 3f ab 47 68 3e
       -0.31849238 -0.25935695 0.68184114 0.22683589
000140 cf aa 0c bf 10 9f d2 be e6 7f a7 bf c0 c7 8b 3f
       -0.54948133 -0.4113698 -1.3085907 1.0920334
000150 8f 86 9e 3d d4 95 d0 3e 41 0b cd bf 90 8d f4 bf
       0.07740509 0.4073931 -1.601906 -1.9105701
000160 86 e1 8c 3e f9 13 bb 3e 9e 0f ce 3d 0f 85 61 bf
       0.2751581 0.36538675 0.100615725 -0.88093656
000170 3a 2f bb 3e f7 f2 99 bf e2 07 83 bf b7 90 21 3d
       0.36559469 -1.2027272 -1.0236781 0.03944465
000180 33 ed e6 3e 3c 5e dd 3e 2f 54 a0 3c 1d 6d 4b bf
       0.45102844 0.43235958 0.019571392 -0.7946337
000190 63 0d c4 bf c6 d3 0a bf 76 20 aa 3e 24 8b 6d 3f
       -1.5316585 -0.5422939 0.3322789 0.92790437
0001a0 d7 85 4d bf 43 78 4d 3f 0e ef be 3e c0 6c 39 40
       -0.8028235 0.8026163 0.3729176 2.8972626
0001b0 20 89 d9 3f 69 fd a7 be ab 12 2b bf 91 38 37 bf
       1.6994972 -0.32810524 -0.6682536 -0.7157069
0001c0 ff ad 93 3c 21 92 a9 bd b5 49 ec 3e 5b e2 72 be
       0.018027304 -0.08279825 0.46149984 -0.2371916
0001d0 cb b7 04 3e 65 d5 3b be 08 20 88 bf f8 f8 0b 3e
       0.12960736 -0.18343122 -1.0634775 0.13669193
0001e0 47 45 14 40 53 59 32 bf b4 4a 72 3f 4d 45 d4 bf
       2.3167284 -0.6966755 0.9464524 -1.6583649
0001f0 be f7 78 b9 f6 b0 15 3f d5 e3 91 bf 54 05 02 c0
       -0.00023743414 0.58473146 -1.1397654 -2.0315752
000200 b6 62 22 be d6 67 ec bf e7 96 ae bf 3a ab ef 3e
       -0.15857968 -1.8469188 -1.3639802 0.46810323
000210 57 2c 49 3f 20 d2 3f 3f 0c 7f 12 be f7 03 1b c0
       0.7858328 0.7493 -0.14306277 -2.422117
000220 40 ed 07 3f d9 d8 2e be e3 ed aa 3e 67 81 5d bf
       0.5309639 -0.17074908 0.33384618 -0.8652558
000230 43 55 1f 3f a8 34 d0 bd c3 9e 7c bf 8c bd b8 3f
       0.62239474 -0.101662934 -0.9867975 1.4432845
000240 1b cb 60 3f 07 01 02 3f 9f 59 c8 3f 57 d6 01 c0
       0.87809914 0.5078282 1.565235 -2.0287073
000250 a2 c5 52 3f f1 29 e1 be 26 96 33 3f 52 09 d0 bf
       0.82332814 -0.4397731 0.70150983 -1.6252844
000260 b7 ef 6b 3d d1 ef 63 bf 79 12 55 3f 86 6a 1a bf
       0.057601657 -0.89037806 0.8323131 -0.6031879
000270 5f 68 21 3f ef f5 a9 be 4f 93 e6 3e 07 61 50 bf
       0.6304988 -0.33195445 0.45034263 -0.8139805
000280 91 12 39 3d d7 86 64 bf 7a 22 8a bf 22 bf a1 3f
       0.045183722 -0.8926825 -1.0791771 1.2636454
000290 e4 5b 07 be 33 84 11 3f 04 4d 36 3c 03 16 2f bf
       -0.13218647 0.56842345 0.01112676 -0.6839296
0002a0 2e 8c 02 bf 2e cc d1 be 09 b9 14 be 72 3d 94 3c
       -0.5099515 -0.4097609 -0.1452371 0.018095706
0002b0 58 7c 21 3f 94 bf e1 bf 41 17 09 be d2 f1 3c 3f
       0.6308036 -1.763659 -0.13387777 0.7380649
0002c0 24 16 2d bf e8 01 9a 3e c1 77 80 3e 25 20 f1 3e
       -0.6761191 0.3007958 0.25091365 0.47094837
0002d0 e0 44 00 bf d5 57 ef be 4d ef d2 3e 5a 2d d6 bc
       -0.50105095 -0.46746698 0.41198197 -0.026144672
0002e0 50 6e d7 3e f5 fa 0d bf 9b b4 52 bf dd b1 53 3e
       0.4207635 -0.55461055 -0.8230683 0.20673318
0002f0 86 59 e8 bd fe 4c fd be df bc 96 3f 17 6d 9e be
       -0.113452 -0.49472803 1.1776389 -0.30942604
000300 95 44 4a bf b9 d1 27 3f e0 ac 85 3f 1d 48 b5 bf
       -0.790109 0.65554386 1.0443382 -1.4162632
000310 4d fc 19 3e e0 2e 6d 3f 38 f2 9a 3e cb c3 8e bf
       0.15037651 0.9264965 0.30262923 -1.1153501
000320 70 d6 c0 3f 5b c0 8a be e7 7d b2 bf f8 0c 9f bc
       1.5065441 -0.2709988 -1.3944672 -0.019415364
000330 e1 2c 85 be 98 d3 38 c0 f0 f3 14 3f 7a 8e a2 3f
       -0.26010802 -2.8879147 0.5818472 1.269973
000340 6d 96 92 bd 2a 70 de bd 28 28 e1 bf 1f e6 87 3e
       -0.07157598 -0.10861237 -1.759038 0.26542756
000350 10 40 9a bf e2 c8 03 40 ce 52 8c 3f e1 0c b8 bf
       -1.20508 2.059136 1.096277 -1.437893
000360 61 45 1c bf c9 19 8b 3f 63 69 93 be 82 97 be 3f
       -0.61043364 1.0867244 -0.2879134 1.4889987
000370 49 ed 13 40 bd 51 23 3e fc 16 a6 bf 30 dc 57 bf
       2.3113577 0.1594915 -1.2975764 -0.84320354
000380 03 a6 d0 3d 4a 58 c8 bf 6a 71 b5 3e 0a 83 46 3e
       0.10187914 -1.5651944 0.3543809 0.19385925
000390 52 2f 83 3e b2 61 0d 3f 42 85 13 c0 7e f0 e1 3e
       0.2562204 0.55227196 -2.3050084 0.44128793
0003a0 e9 e1 bd be 02 1e 4c 3e ee 03 5f 3f bd cf 3c 3e
       -0.37086418 0.19933322 0.8711537 0.18438621
0003b0 94 8d c9 3e 1d 7e d2 be d4 b0 84 bf eb 83 f8 be
       0.39365828 -0.41111842 -1.0366464 -0.48538145
0003c0 1b 11 8d bf 01 65 5c 3e e6 e8 92 bf 9f 75 55 3f
       -1.1020845 0.21522905 -1.1477325 0.833826
0003d0 b1 eb 62 be c5 2e 68 bf aa 82 7e 3f 88 7e e9 3d
       -0.22160222 -0.90696365 0.9941813 0.11401087
0003e0 b0 ac 8a bf b3 ba 04 3e a9 a4 13 3f 12 43 dd bf
       -1.083395 0.12961845 0.57673126 -1.7286093
0003f0 35 4c 3b 3f ea 3f a4 bf 2e a9 77 3f a5 f7 11 bf
       0.7316316 -1.2832005 0.9674252 -0.570185

fc.0.weight f4 [32, 6]
000000 8f 6e a0 3e 7b 2a 8b be 93 8f 52 bd fc 9d 4f 3e
       0.3133435 -0.27180848 -0.051406454 0.2027511
000010 82 8f e1 bc 10 b6 df 3e 5b 30 a7 3c 28 b5 94 be
       -0.02753425 0.4369359 0.0204088 -0.2904446
000020 34 b9 f1 bc b4 21 ae 3e 4f 7c 5f 3e ed f7 94 be
       -0.029507257 0.34010088 0.21824764 -0.29095402
000030 45 c9 75 3e 30 9d 9c 3e ca 80 3c be f8 da 46 3e
       0.2400256 0.30588675 -0.18408504 0.19419467
000040 ab fd cd 3e 67 26 58 be fd 75 63 3d e2 3b f6 bb
       0.40232596 -0.211084 0.055532444 -0.007514463
000050 54 d4 71 be 00 b5 76 be f2 ce 95 3e 39 29 93 be
       -0.23616153 -0.24092484 0.2925945 -0.28742388
000060 f7 d5 84 be de f9 9f 3e 99 c2 96 bd 5a e8 0f 3e
       -0.25944492 0.3124532 -0.07361335 0.14053479
000070 ee de 5b bd 9c 72 87 be 11 a4 51 be 48 59 73 3e
       -0.0536794 -0.26454628 -0.20472743 0.23764527
000080 b4 03 69 be 84 05 90 bd a2 5d b6 be 91 e9 c3 be
       -0.22755319 -0.07032302 -0.3561831 -0.38264135
000090 42 24 e2 3d bc 88 a6 3c 42 cd aa 3e 8e f9 b8 3e
       0.11042072 0.020328872 0.33359724 0.36127895
0000a0 56 9a df bb ec 15 4e be 82 10 dc 3c 36 df 4c bc
       -0.006823818 -0.2012555 0.02686334 -0.0125043895
0000b0 a6 8e c1 3e 50 d2 7b be bb 1e af 3e dc a0 57 bd
       0.37804145 -0.24591947 0.34203133 -0.05264364
0000c0 8b bc d5 3d 3f 8e 03 3e 01 f1 4b 3e cd 3f 87 bc
       0.10436352 0.12847231 0.19916154 -0.016509915
0000d0 87 63 8a be 70 dc d4 3d d0 7a 89 be 43 7e 7f 3e
       -0.27029058 0.103936076 -0.2685151 0.24950509
0000e0 f2 1d 22 3d 1d 4a 1a 3e dd f7 35 bd d4 0a 59 3e
       0.03957934 0.15067334 -0.044425834 0.21195537
0000f0 2b 0f d1 3d 8b 85 0c 3e 4e 5a cd 3d 70 e2 33 3e
       0.10207971 0.13722818 0.1002699 0.17566848
000100 90 44 7e be 03 e9 92 bd c0 0b 7e 3e 9f a1 5e be
       -0.24830842 -0.0717335 0.2480917 -0.21741341
000110 41 68 97 3e 43 67 c7 3e 5e 27 3b be ae 04 70 3e
       0.29571727 0.3894597 -0.18276736 0.23439285
000120 70 b3 b0 be fb 36 81 bd 72 61 5f 3e 8d 48 94 be
       -0.345119 -0.06309315 0.21814516 -0.28961602
000130 1b 19 87 be 48 d0 83 bc f2 5e a3 be c4 93 b7 3e
       -0.2638634 -0.016090527 -0.31908375 0.35854924
000140 1f 99 08 3e e0 be 21 3e ac 8b 9e bb b3 e3 7a be
       0.13339661 0.1579547 -0.0048384275 -0.24500923
000150 0b 84 76 3e b9 7f 5b bb cf f1 85 3e fc 2c cf 3e
       0.24073808 -0.0033492877 0.26161048 0.40464008
000160 b0 fb c0 be 0a 79 66 3e 38 35 07 3e f4 75 29 bd
       -0.37692022 0.2250711 0.13203895 -0.041372254
000170 bd 8e 8f be 20 b1 86 3e ab 62 c9 3e 43 04 be be
       -0.28038588 0.2630701 0.3933309 -0.37112626
000180 54 25 46 be 5f 70 b3 3e 2f ca 00 be 62 aa 9a 3e
       -0.19350177 0.3504667 -0.12577127 0.30208117
000190 46 74 78 3e 82 71 71 bd f3 bd ac be c0 ab 57 3e
       0.24263105 -0.05894614 -0.3373867 0.21061611
0001a0 f1 20 83 bd 11 fb c0 3e ac f3 29 3e 0d 0c 89 3b
       -0.064027674 0.37691548 0.1659686 0.004182345
0001b0 35 64 a0 3e 3f bf 86 be 7b 0d 5f bd ae 38 22 3d
       0.31326452 -0.26317784 -0.054456215 0.039604835
0001c0 93 c4 9f 3e d2 86 2f 3e ae 27 98 be 34 54 36 3e
       0.31204662 0.17141274 -0.29717773 0.17805558
0001d0 55 f8 89 bd e4 ee 35 3e 6f 69 2a 3d e3 a0 84 be
       -0.06736819 0.17766911 0.041604456 -0.25903997
0001e0 4c e5 b2 be 08 19 5e 3e 28 0f 2e 3d 58 5e 91 be
       -0.34940565 0.21689236 0.042494923 -0.2839229
0001f0 8c 43 91 3d 55 0d 13 bd ae 11 b3 3e 4f ba c2 be
       0.07092962 -0.035901386 0.34974426 -0.38032767
000200 54 90 87 be 0b 87 9d bd 71 cf c7 be 68 3f 30 3e
       -0.264773 -0.07691773 -0.39025453 0.17211688
000210 93 4f e5 3c ec 77 81 3e 1e 3c 56 3c 32 fc dc be
       0.027992046 0.25286806 0.0130758565 -0.4316116
000220 3c 48 b3 3e 6f d5 af 3e 68 66 06 3d a8 47 74 3e
       0.35016048 0.34342524 0.032812506 0.2385546
000230 44 b9 30 be 2f 0c 3e bd a4 8e 67 3d 01 83 f5 bd
       -0.17258173 -0.046398338 0.056532517 -0.11987878
000240 64 08 6e be d6 de 35 bd 92 85 2e be 4f 1b 54 3e
       -0.23245388 -0.044401966 -0.1704314 0.20713542
000250 d2 90 7e bd c2 e4 b2 3c f5 67 8b be 27 ac 60 be
       -0.06214983 0.021837596 -0.2722775 -0.21940671
000260 cd 53 cd 3d 2b ef a1 be 11 3f 04 be 6a 2e 36 be
       0.10025749 -0.31627783 -0.12914683 -0.17791143
000270 2b 0a 3b 3e 25 b2 c3 3e 8e 56 e8 3d 43 ec fc 3d
       0.18265598 0.3822185 0.11344634 0.12349751
000280 6e 27 de 3c cf 82 0d 3e d4 d0 ea 3d af 77 81 be
       0.02711841 0.13819431 0.11465612 -0.25286624
000290 f9 4f 87 be a4 eb 2c 3e 68 3a c0 3d 3f 67 ac be
       -0.26428202 0.16886765 0.0938614 -0.3367252
0002a0 de e0 a9 3e 04 a9 01 3e 42 02 5e 3e 94 a9 61 be
       0.33179373 0.1266213 0.21680549 -0.22037345
0002b0 bd 49 30 3e 58 c7 e5 3c 43 1d b7 3e 74 9b 8a 3e
       0.17215629 0.028049156 0.35764512 0.27071726
0002c0 c7 33 ba 3e c8 b9 d4 3d 94 66 a4 bd 3b d3 3f bd
       0.36367628 0.103869975 -0.08027378 -0.046832304
0002d0 93 74 c7 be bc 16 4d be b1 3a c4 3e 55 6b 9b be
       -0.38956127 -0.20028204 0.38326028 -0.30355325
0002e0 22 e4 96 3e f4 9d 92 bc e6 0e 48 be 13 78 ac be
       0.29470927 -0.017897584 -0.19536933 -0.3368536
0002f0 2b 9f df 3e 53 e6 22 be fe 57 cb 3d f2 ed c0 3a
       0.43676123 -0.15908174 0.099288926 0.0014719351

fc.0.bias f4 [32]
000000 91 0b a7 3d 11 26 2b 3c 07 f9 2f 3d c6 af 9b 3d
       0.08156503 0.010446087 0.0429621 0.076018855
000010 ad 34 9e 3e 3d 7a 88 be af 86 79 3c 16 57 0e 3e
       0.30899563 -0.2665576 0.015229865 0.13900408
000020 a6 68 5d 3e 0a f8 ab be 01 f8 6d 3e e2 73 56 be
       0.21621951 -0.33587676 0.23239137 -0.20942643
000030 43 be 6c be 12 64 40 3d 83 a4 c3 bd ad b3 d1 3d
       -0.23119454 0.046970434 -0.095528625 0.102393486
000040 bd 8b 4e be 27 58 a8 be fc cb b0 be da e7 c1 3d
       -0.20170493 -0.32879755 -0.34530628 0.0946805
000050 44 35 a0 3e 60 8c f4 3d 57 f1 62 3e 56 6f 1f 3e
       0.31290638 0.11940837 0.22162376 0.15569815
000060 55 b2 90 3e 29 e7 81 bd ee 26 bb 3d 63 29 c0 3d
       0.28261057 -0.063429184 0.091382846 0.09382894
000070 70 c9 ba bd 31 77 04 be 0d 6b 80 be e7 6e 21 3e
       -0.091204524 -0.12936093 -0.25081673 0.15764962

fc.3.weight f4 [16, 32]
000000 7d 46 8f 3d 9b 49 d8 3d d6 a8 0e be 18 66 3a 3e
       0.069958664 0.10560914 -0.13931593 0.18203008
000010 c4 ea 4f bd 3c 2d b9 bd b9 3e 7a bd 88 22 96 3d
       -0.050761 -0.09041831 -0.061094973 0.07330805
000020 86 81 00 bc e4 b9 0b be ff f8 92 3d 0a b1 5a 3e
       -0.007843381 -0.1364513 0.071763985 0.21356598
000030 09 5b af 3d f5 47 1b be a7 a2 06 3c 32 68 93 3d
       0.085622855 -0.15164168 0.00821749 0.07197608
000040 11 ea 3f be a4 d3 2e bd 33 de 86 bd 6f af 26 be
       -0.18741633 -0.042682305 -0.0658535 -0.1627786
000050 1f 06 0b bd e6 7a 02 3e 07 a3 ae 3d 22 f0 82 3d
       -0.033941384 0.12742195 0.08527189 0.06393458
000060 9a a7 91 3d b0 0d 94 bd 6e 9a a7 bd a1 46 b8 3c
       0.071120456 -0.07229173 -0.08183752 0.022494616
000070 8a 34 a3 bd b3 2a eb bd 8f 2a 87 3d ba 53 c1 3d
       -0.079690054 -0.114827536 0.06599914 0.09439798
000080 69 69 2c be 82 7a 1d 3e f6 73 1b be ac 09 f1 3d
       -0.16837086 0.15378764 -0.15180954 0.11769423
000090 ec d5 12 3e f1 59 08 be eb 2b be 3d 2c 7a d9 bd
       0.14339417 -0.1331556 0.092857204 -0.106190056
0000a0 eb e9 09 bc 47 02 10 3e 8d 02 9e bd 30 aa 70 bd
       -0.008417587 0.14063369 -0.0771533 -0.058756053
0000b0 b5 3f 2a 3d 65 06 6d 3d 98 e8 09 3e 49 bb d7 3d
       0.041564662 0.057867426 0.13467634 0.10533769
0000c0 8e 00 f3 3c f9 57 5f 3d f6 ad 2f bd 31 84 ce 3d
       0.02966335 0.054527257 -0.04289051 0.10083807
0000d0 e5 0d b7 3d 8e 1e 25 bd 23 9a 31 3e 63 5d 31 be
       0.08938197 -0.040312342 0.17343955 -0.1732078
0000e0 fe 60 88 3c bb 0e 16 be 67 eb a8 bd f3 ae 2b bd
       0.016647812 -0.14654057 -0.082480244 -0.04191489
0000f0 8f 7b 14 3e b2 b3 15 be 19 e4 44 bd fa 0c cb 3d
       0.14500259 -0.1461933 -0.048069093 0.099145845
000100 7d 4e 12 bc 3b 00 8a 3d db e5 3d 3e dd 44 49 3d
       -0.008929846 0.06738325 0.18544714 0.04913794
000110 e3 e8 50 bd bf ef f2 3d 6d dc 7e bb c2 3b 17 bd
       -0.051003348 0.11862134 -0.0038888708 -0.036922224
000120 eb 75 08 bd da 16 ee 3c 66 bd e9 3d eb 8f 15 be
       -0.03331558 0.02906363 0.11413078 -0.14605682
000130 8d fc ca bd 2b d0 2b bd f7 8c 82 bd f1 df 35 3e
       -0.099114515 -0.04194657 -0.06374543 0.17761208
000140 66 81 26 3e a8 34 6d 3d 3f 50 a8 3d d6 ef a6 3d
       0.16260299 0.057911545 0.08218431 0.08151214
000150 30 ec 74 bd 6e a3 53 bd e3 23 79 bd ed 9e b3 3d
       -0.05979556 -0.05166953 -0.06082524 0.08770547
000160 f4 09 19 3d 3a 30 fb bd c5 38 01 3e 84 6a 9a bc
       0.037363008 -0.12265058 0.12619312 -0.018849619
000170 03 72 f1 bd 8b 22 81 bd c2 35 54 bd 1f 00 14 3d
       -0.11789324 -0.06305417 -0.05180908 0.036132928
000180 1e 91 85 bd 83 cd 3a 3e f2 6a 72 bd f9 2c b4 bc
       -0.065218195 0.18242459 -0.059184022 -0.0219941
000190 0a 78 8a bd 7a 0d a7 3c 28 9a ec 3d de be ce 3d
       -0.06761177 0.020392168 0.115528405 0.10094999
0001a0 72 12 88 3d 70 26 fa 3d e5 d2 1f be 06 35 cd bd
       0.06644143 0.122143626 -0.15607794 -0.10019879
0001b0 62 56 da bc 7a 8c 05 bd a0 d8 e2 bd e4 fa cf bc
       -0.026652519 -0.032604672 -0.11076474 -0.025388189
0001c0 6c 89 b5 3b 19 87 5b bd 1c 1f 3f 3c 92 6c 91 3b
       0.0055400636 -0.053595636 0.011665132 0.0044379914
0001d0 51 bd ff 3c a0 35 f6 3c 1b e7 93 bd 1b 4a 05 be
       0.031218203 0.030054867 -0.07221814 -0.1301655
0001e0 da 0c 3b 3d 33 d2 85 bb 3f 19 66 bd 01 d9 d9 3d
       0.045666553 -0.0040838956 -0.05617642 0.10637093
0001f0 ea e1 6a 3d a6 35 ea bd b9 8b 16 bb b3 9e 56 3e
       0.057344355 -0.11436014 -0.0022971465 0.20958976
000200 23 1b 0a 3d 6f bf 0a 3e 45 e2 22 be 12 78 1b 3e
       0.033717286 0.13549589 -0.15906627 0.15182522
000210 74 4b b0 3d 47 cb e3 3d a3 2a 9e 3d 8d ec de bb
       0.086081415 0.111227565 0.07722976 -0.0068031014
000220 c8 af dd 3d 06 aa c6 3d 3d 43 fc bd 60 24 b5 bd
       0.10824543 0.09700398 -0.12317512 -0.088448286
000230 24 88 33 3e cc 47 5d 3d 33 c1 2b bc e0 7a ec 3d
       0.17532402 0.05402355 -0.010483074 0.11546874
000240 bc 19 e8 3d 56 60 3a bb 46 c3 01 3e bf de 73 3c
       0.113330334 -0.0028438768 0.12672147 0.01488465
000250 b8 63 cb bd 04 84 d9 3d b4 87 68 3d ef 6e a3 bd
       -0.09931129 0.10620883 0.05677004 -0.07980143
000260 e7 79 c4 bc 30 ce 18 be 04 d8 27 bd cc 46 06 3d
       -0.023983909 -0.14922404 -0.040977493 0.03278236
000270 fe 89 9f bd 9a e4 b7 bd 9f 56 38 be 24 1f 49 be
       -0.07789992 -0.08979149 -0.18001793 -0.19640785
000280 69 12 c4 3d 83 f1 48 bd 9e cc ae 3d 3b da d6 3d
       0.09573824 -0.04905845 0.085351214 0.10490843
000290 0d d4 0d be f7 91 3a 3e f7 14 d2 bd 6a 30 26 3d
       -0.13850422 0.18219744 -0.10257905 0.040573515
0002a0 36 8f 86 bd 20 4b a1 3d 36 3b d5 bc b0 76 38 be
       -0.06570284 0.07875657 -0.02602921 -0.18014026
0002b0 37 05 d8 3c 54 ce 91 bd da a2 25 be 54 a6 4f 3c
       0.026369674 -0.07119432 -0.16175404 0.012673933
0002c0 e2 65 bb 3b 65 9a 81 bd b2 13 06 3d 48 1b 03 3d
       0.0057189325 -0.063282765 0.032733627 0.03200844
0002d0 85 f8 1d 3e cd 84 65 3a 0a 56 e7 bd 1e d6 e2 3d
       0.15426834 0.00087554456 -0.112957075 0.11075996
0002e0 b3 da 1d 3e d2 ba a5 bd 4a 82 f5 bd 34 18 c8 3c
       0.15415458 -0.08092274 -0.11987741 0.024425603
0002f0 10 c3 41 be 28 34 81 bc c5 94 93 bd a5 12 df 3c
       -0.18922067 -0.01577194 -0.0720611 0.02723057
000300 e3 83 3e be 39 4c 98 3d ce 04 81 bd 84 47 34 bd
       -0.18604998 0.07436413 -0.062997445 -0.044013515
000310 de 85 ad bc 8c 11 f2 bd 25 4b 83 bd 9a 41 8c 3d
       -0.021181997 -0.11819753 -0.06410817 0.0684845
000320 21 75 74 bd b5 29 6f bd 45 f9 94 bd ce 26 a9 bd
       -0.059682015 -0.058389384 -0.07274107 -0.082593545
000330 30 06 24 3e 75 25 b7 3d cf f6 f0 3d 6e 40 2a be
       0.16017985 0.08942691 0.11765825 -0.1662614
000340 ce 92 20 be fc bf 8e bd ae 9f 53 bd b4 52 02 3c
       -0.15681002 -0.06970212 -0.051665954 0.007954288
000350 f5 f8 26 3e e0 fc 0a 3e 31 bc c7 3d 7b 50 80 bd
       0.16305907 0.13573027 0.097526915 -0.062653504
000360 28 37 0c be 5a 15 97 bd 9e 22 43 3b d1 67 6c 3c
       -0.13692915 -0.07377119 0.0029775272 0.014429049
000370 fe ca 1b bd fb 56 43 3d 22 e4 25 be 88 2c 3e be
       -0.038035385 0.047690373 -0.16200307 -0.18571675
000380 bc 6f c6 bc 14 ed fa bc db 08 de 3c 58 dc 3b 3d
       -0.024223201 -0.030630626 0.027103832 0.045864433
000390 2b 34 eb 3d df e7 fb bd 57 20 d6 bc 59 2f c5 3d
       0.114845596 -0.12300085 -0.026138468 0.096281715
0003a0 b8 6c 20 be c4 8f d6 3d dc 96 97 bd 59 1f 0f be
       -0.15666473 0.1047664 -0.07401821 -0.13976802
0003b0 c8 18 33 3e 55 e3 3b 3d 61 53 a0 3d 6a 30 fd 3d
       0.17489922 0.045871098 0.07828403 0.1236275
0003c0 e9 f1 31 be 02 3b 4b be a8 e3 5b bd b3 f8 55 3d
       -0.17377438 -0.19846728 -0.053683907 0.05223913
0003d0 c8 45 c7 bd f4 62 20 3e 15 07 f8 bd dd 26 8f 3d
       -0.097301066 0.15662748 -0.12110726 0.069898345
0003e0 06 b9 c7 bc 33 0d f6 3d 9a f7 c2 bd 3c de 08 be
       -0.024380218 0.12014236 -0.095198825 -0.13366026
0003f0 1b 47 4b bd ba 0d 8b 3c ac de 44 3e 09 e3 10 3e
       -0.04962836 0.016974319 0.19225568 0.14149107

fc.3.bias f4 [16]
000000 c5 1c ac 3d 85 c2 ff bd e8 1e ac bd 9f b2 2b 3d
       0.08403925 -0.124882735 -0.084043324 0.041918393
000010 67 da 0a 3e 54 24 08 3e 5d 99 f1 3c 63 4f 95 bd
       0.13559876 0.13295108 0.029492075 -0.072905324
000020 6c 09 23 3d 82 98 80 bd fd 78 d6 3d 36 74 79 3d
       0.039803907 -0.062790886 0.104722954 0.060901843
000030 a6 af 90 3d aa 81 d1 bd 6d 27 af bb 72 d4 89 3d
       0.07064752 -0.102298096 -0.005345276 0.06729974

fc.6.weight f4 [1, 16]
000000 35 8d 9e 3d 56 ba 26 3e 00 fb b6 bc 2b 2a 49 3d
       0.07741777 0.16282019 -0.022336483 0.04911248
000010 8b 8e 42 be a1 31 5c be f0 e1 c7 bd 77 4b 9a 3e
       -0.18999688 -0.21503307 -0.09759891 0.301357
000020 a0 0c 70 3d 1e 21 a8 bd 0e 3c 13 be 53 02 77 3d
       0.05860579 -0.082094416 -0.14378378 0.06030495
000030 d6 0a 20 bb ea 05 da bd 31 82 57 3e 37 aa 68 be
       -0.0024420521 -0.10645659 0.21045758 -0.22721182
