d2draftnet/models/test_model.pth (torch, 7589 bytes, 6 tensors)

embedding.weight f4 [127, 3]
0.0 0.0 0.0 0.29917055 -0.87226945 0.0059857564 0.2158882 1.6045307
-1.1182903 -0.41478917 -1.0871288 0.27711585 1.1335618 -0.67844826 -0.02891442 -0.049870607
-0.40858305 1.5524708 -0.008756385 1.2376424 -0.22894768 0.3195251 -1.0637184 -0.9888001
0.23514897 0.9714574 0.01676574 -1.2164054 -0.8827213 -0.6205506 -0.10825508 -2.0988193
-0.42440897 -0.7643831 0.3470644 -0.843814 -0.92411894 0.61483604 0.36607385 1.0450213
-0.8086675 -0.35517436 0.7134114 0.53560746 1.2129108 -2.566685 0.62407666 -0.735649
0.77356976 1.1279389 0.479936 0.031585723 -0.79620385 -2.0502381 0.827574 0.54228514
2.1001053 0.29365468 -1.4913664 0.5778258 0.096660875 1.4109521 -0.20334825 -0.34678674
1.2118726 0.50698245 0.6655026 0.26205942 0.005314995 1.6792332 0.1449694 -0.20334667
0.19901177 -1.3402402 -0.2452964 0.04647018 0.9282716 0.86502326 1.7068756 -1.7526052
-0.66098034 1.0178214 -0.6392452 0.7906705 0.45176402 -0.1363981 0.54228675 0.57162416
1.5474535 -1.4423932 -0.18280777 1.2519429 -0.0884299 0.7705697 0.91325474 -0.023288103
0.3062956 0.75432414 0.37902033 0.6265902 -1.3726968 -0.40841624 -1.3357831 -1.9098024
1.8541065 0.4493878 -0.35329416 -1.3545289 -0.34510326 -0.83924127 -0.11527262 0.27705103
-0.99987954 0.4032708 -1.3632804 0.58263785 -0.8649247 0.05138076 -1.152153 2.0165133
1.0753682 -1.7469057 -2.1127548 -0.6763791 -0.85359293 0.6310818 -0.28296417 -0.76553077
0.7348117 1.291466 0.06430139 2.2046535 2.032991 0.31604823 0.4862377 -1.0809921
1.5547887 -0.37611583 0.10070335 1.2105851 1.0136412 -0.20131725 -0.2560159 -0.8378008
1.8056358 0.5850469 0.8094958 0.73281324 -0.3466313 -1.6871519 0.81374824 0.35296908
-1.1375378 -0.061065763 -1.0177249 -0.779476 0.7257715 -0.5596117 -1.4943664 -0.5581649
0.12539858 0.7627776 -0.5716062 0.45799822 -1.7356981 -0.6911251 -1.1851758 0.76497173
1.4605924 -1.7630095 2.209545 -0.81980103 -0.904581 -0.2882833 0.13043371 -0.6098667
-0.5194038 -0.5669224 -0.73649114 -0.559366 -0.47468916 -1.3318734 -0.35826534 0.0032002477
1.3310866 -0.115631506 1.2924765 1.223369 0.20100038 0.159858 -0.55850476 0.74600714
1.156871 -0.30309823 0.20865402 0.10627682 -1.554148 1.1614544 -1.2363163 -0.5236695
0.5362989 0.8717806 0.38574213 -0.1522139 -1.4319243 0.25087857 0.10891558 0.08100511
-0.183102 1.1510215 -2.8621206 0.6139933 0.5990285 -0.9141597 -1.137141 -0.6426316
-0.11529077 -0.5505248 0.31182203 0.08027266 -1.2257711 0.47297323 -0.40536097 -0.6246115
-1.828936 -0.09324586 0.5246739 0.0021590865 -0.86446714 1.0528289 0.67868507 0.6005128
-0.27470148 -0.036619507 0.30223298 0.39394784 0.6371779 2.5232646 0.13771173 2.119233
1.3867038 -0.6268936 -1.4799049 0.59868133 0.5481998 -0.35882 -1.9795939 -0.75588405
-1.3722403 -0.3062029 -1.5378934 -0.48325357 -0.30856064 -0.017949432 1.0060294 0.5468901
00000000: 0000 0000 0000 0000 0000 0000 e22c 993e
00000010: 0d4d 5fbf 2a24 c43b cc11 5d3e 4361 cd3f
00000020: 2324 8fbf 3f5f d4be 0927 8bbf 21e2 8d3e
00000030: 8e18 913f c9ae 2dbf efdd ecbc 1f45 4cbd
00000040: cc31 d1be 5db7 c63f f176 0fbc 116b 9e3f
00000050: 4371 6abe cb98 a33e ed27 88bf 0122 7dbf
00000060: e4ca 703e 6fb1 783f 4e58 893c 2cb3 9bbf
00000070: 06fa 61bf 67dc 1ebf d7b4 ddbd 0e53 06c0
00000080: 224c d9be 9cae 43bf 6db2 b13e 3204 58bf
00000090: 0f93 6cbf e565 1d3f 086e bb3e 42c3 853f
000000a0: d504 4fbf 6ad9 b5be 21a2 363f 921d 093f
000000b0: a940 9b3f 9144 24c0 7dc3 1f3f 7e53 3cbf
000000c0: ab08 463f 4d60 903f 2cba f53e 0860 013d
000000d0: 04d4 4bbf 1a37 03c0 e4db 533f 33d3 0a3f
000000e0: 2068 0640 e859 963e 18e5 bebf 64ec 133f
000000f0: 23f6 c53d 149a b43f 863a 50be 088e b1be
00000100: a41e 9b3f 9ac9 013f 615e 2a3f a72c 863e
00000110: 6929 ae3b 1df1 d63f dc72 143e 1c3a 50be
00000120: bec9 4b3e fe8c abbf fb2e 7bbe 8457 3e3d
00000130: 35a3 6d3f 2a72 5d3f e67a da3f 5e55 e0bf
00000140: 0236 29bf f947 823f 93a5 23bf 6269 4a3f
00000150: 9d4d e73e f2ab 0bbe 4ed3 0a3f f655 123f
00000160: f512 c63f 57a0 b8bf f631 3bbe aa3f a03f
00000170: bc1a b5bd 0e44 453f 10cb 693f b1c6 bebc
00000180: c7d2 9c3e 631b 413f f40e c23e 3768 203f
00000190: 87b4 afbf ef1b d1be f1fa aabf 6874 f4bf
000001a0: 5d53 ed3f 2816 e63e f9e2 b4be 3461 adbf
000001b0: 60b1 b0be 84d8 56bf 0d14 ecbd a2d9 8d3e
000001c0: 1bf8 7fbf 8379 ce3e f97f aebf c127 153f
000001d0: b56b 5dbf a274 523d c079 93bf 8e0e 0140
000001e0: aaa5 893f 9b9a dfbf 6037 07c0 2e27 2dbf
000001f0: 1185 5abf 948e 213f aee0 90be d3f9 43bf
00000200: 9f1c 3c3f c24e a53f 72b0 833d 0b19 0d40
00000210: 861c 0240 13d1 a13e 26f4 f83e f35d 8abf
00000220: 5103 c73f 4192 c0be 8f3d ce3d 74f4 9a3f
00000230: ffbe 813f 1c26 4ebe 8414 83be 1d7a 56bf
00000240: 131f e73f a2c5 153f 1e3b 4f3f a699 3b3f
00000250: a879 b1be 98f4 d7bf ce51 503f 5db8 b43e
00000260: d79a 91bf 1820 7abd cf44 82bf bd8b 47bf
00000270: 29cc 393f b642 0fbf 6647 bfbf e5e3 0ebf
00000280: 7c68 003e 6545 433f c954 12bf be7e ea3e
00000290: 5b2b debf 93ed 30bf d7b3 97bf 30d5 433f
000002a0: b1f4 ba3f 4caa e1bf 2f69 0d40 7bde 51bf
000002b0: 9f92 67bf de99 93be 6a90 053e 3920 1cbf
000002c0: a6f7 04bf d421 11bf af8a 3cbf 9c32 0fbf
000002d0: 750a f3be d47a aabf 8e6e b7be 3fbb 513b
000002e0: 0c61 aa3f 36d0 ecbd df6f a53f 5b97 9c3f
000002f0: 0bd3 4d3e d1b1 233e 2bfa 0ebf 53fa 3e3f
00000300: 5914 943f b12f 9bbe 66a9 553e a9a7 d93d
00000310: 52ee c6bf 8aaa 943f 9d3f 9ebf 340f 06bf
00000320: e24a 093f 032d 5f3f fe7f c53e f6dd 1bbe
00000330: 4c49 b7bf 2873 803e 220f df3d 02e6 a53d
00000340: 177f 3bbe ac54 933f fc2c 37c0 aa2e 1d3f
00000350: ef59 193f 5f06 6abf d68d 91bf 8183 24bf
00000360: 911d ecbd 31ef 0cbf 23a7 9f3e fe65 a43d
00000370: 11e6 9cbf 8c29 f23e 798b cfbe 8ae6 1fbf
00000380: 931a eabf aff7 bebd 0751 063f 767f 0d3b
00000390: b84d 5dbf 19c3 863f 4ebe 2d3f 35bb 193f
000003a0: aca5 8cbe 56fe 15bd 48be 9a3e 88b3 c93e
000003b0: 171e 233f 2b7d 2140 4e04 0d3e 83a1 0740
000003c0: 837f b13f 197c 20bf 866d bdbf 2e43 193f
000003d0: d256 0c3f 41b7 b7be 5563 fdbf 9e81 41bf
000003e0: 92a5 afbf a0c6 9cbe b1d9 c4bf 036d f7be
000003f0: a9fb 9dbe b00a 93bc 92c5 803f fd00 0c3f

fc.0.weight f4 [32, 6]
0.087560415 -0.08862323 0.13044006 0.13213703 -0.0054672 0.21295024 -0.30535242 0.27213386
-0.08742932 -0.12824634 -0.27071202 -0.19513436 -0.026898291 -0.27393022 0.20907326 -0.40856063
0.24293585 0.3432742 0.11499723 -0.22576825 -0.32513714 -0.23460475 0.124712415 -0.31962818
0.1274952 0.34798193 0.01543166 0.21127649 -0.32676616 -0.01579924 -0.29807612 -0.3262843
-0.12303403 -0.20562454 0.3542625 -0.2300372 -0.257459 0.024636982 0.33599326 -0.3963021
0.20135188 -0.085075095 -0.34324473 0.005440679 0.3334572 0.07973655 -0.110209264 -0.21585695
-0.19948769 -0.27797496 0.021353655 -0.06256254 0.06972218 -0.17309332 -0.4123334 -0.33563432
-0.30146912 0.2510378 -0.1220102 0.36473966 -0.39636374 -0.16611114 -0.36724353 -0.28508204
0.21479845 -0.06695039 0.38184035 -0.37247092 -0.23462962 -0.036486432 -0.36417162 -0.35364214
0.1753809 0.3634687 -0.3642004 -0.0060550063 0.06051127 0.1956335 0.32551923 0.17297477
0.38905236 -0.20650028 0.288484 0.3037 -0.053978328 0.26180422 -0.31565127 0.4262008
-0.045601808 0.37752798 0.17741174 -0.14639954 0.38840374 0.34243092 -0.3501231 0.05794123
-0.19177759 -0.23011686 0.11250575 0.37210587 -0.42337358 -0.38010958 0.0013610418 -0.2614767
-0.18443803 -0.013305232 -0.044146333 -0.027584955 0.26511875 0.036451273 -0.25911018 -0.10042364
-0.3381712 0.11330998 -0.39279827 0.33380473 0.023484742 -0.016777704 0.30063915 -0.03310004
-0.204049 0.25874797 -0.24849933 -0.031938255 0.40918145 -0.35067487 -0.2571045 -0.2628286
0.17627613 -0.26743034 0.10656379 -0.3430992 -0.17561674 -0.081683 0.3280667 0.04737046
0.30058032 -0.3832763 -0.055875476 0.29782435 0.27761632 -0.14660276 0.1424591 0.099739954
-0.18821737 0.14783126 0.043636587 0.36382058 -0.03236363 0.31460983 -0.3140798 -0.29078394
-0.39750734 0.08616338 -0.30950698 0.18404625 -0.2441901 0.42265362 0.34247506 -0.24085452
-0.23835248 0.37945485 -0.21323736 -0.19854544 -0.10283264 -0.28732392 -0.35914966 -0.20634349
-0.1081357 0.16190322 0.30818674 -0.3727578 -0.31506455 0.24998923 0.26009843 0.14927644
0.33876744 0.33928117 -0.22713001 0.13058682 0.28524283 -0.30966777 -0.16931899 0.014634591
0.26032922 0.30608258 -0.13495521 -0.10961788 -0.2815853 0.37282324 0.20590812 -0.14995284
00000000: e052 b33d 1980 b5bd 1492 053e ee4e 073e
00000010: 3326 b3bb a10f 5a3e 2757 9cbe 2155 8b3e
00000020: 250e b3bd 0253 03be c49a 8abe 4dd1 47be
00000030: ce59 dcbc 9540 8cbe 4d17 563e dc2e d1be
00000040: 2dc4 783e a3c1 af3e ab83 eb3d cb2f 67be
00000050: 6078 a6be 3a3c 70be 3969 ff3d 4ea6 a3be
00000060: 1a8e 023e b02a b23e 13d5 7c3c dd58 583e
00000070: e54d a7be 686d 81bc 6f9d 98be bc0e a7be
00000080: 44f9 fbbd 3d8f 52be e561 b53e df8e 6bbe
00000090: abd1 83be 7fd3 c93c 4f07 ac3e 1ce8 cabe
000000a0: 302f 4e3e da3b aebd c6bd afbe b947 b23b
000000b0: e7ba aa3e eb4c a33d 65b5 e1bd 9b09 5dbe
000000c0: 8046 4cbe bc52 8ebe dced ae3c ca20 80bd
000000d0: 81ca 8e3d 603f 31be 5d1d d3be 43d8 abbe
000000e0: 295a 9abe 0788 803e 7ce0 f9bd 28bf ba3e
000000f0: 30f0 cabe 0a19 2abe 5807 bcbe 46f6 91be
00000100: 20f4 5b3e 491d 89bd 9480 c33e 82b4 bebe
00000110: bf42 70be cc72 15bd b474 babe 9510 b5be
00000120: 0d97 333e 9218 ba3e 7a78 babe 1369 c6bb
00000130: aada 773d 2654 483e 75aa a63e 4c20 313e
00000140: df31 c73e cf74 53be 2db4 933e 917e 9b3e
00000150: 6118 5dbd 340b 863e 0b9d a1be fe36 da3e
00000160: f6c8 3abd 594b c13e 6cab 353e c3e9 15be
00000170: dbdc c63e 1b53 af3e 5643 b3be c853 6d3d
00000180: 5861 44be c1a3 6bbe 6a69 e63d a984 be3e
00000190: 6cc4 d8be b99d c2be fc64 b23a 46e0 85be
000001a0: 53dd 3cbe 30fe 59bc c9d2 34bd d8f9 e1bc
000001b0: a5bd 873e ee4d 153d 17aa 84be e9aa cdbd
000001c0: c724 adbe 100f e83d db1c c9be 74e8 aa3e
000001d0: 1363 c03c 6571 89bc 60ed 993e e893 07bd
000001e0: 39f2 50be 9d7a 843e 9c76 7ebe b0d1 02bd
000001f0: 3b80 d13e a88b b3be 33a3 83be 7891 86be
00000200: bb81 343e a1ec 88be 1e3e da3d b3aa afbe
00000210: e0d4 33be 6b49 a7bd 5cf8 a73e 8707 423d
00000220: aae5 993e cb3c c4be afdd 64bd 6f7c 983e
00000230: ba23 8e3e 091f 16be cce0 113e 7644 cc3d
00000240: 0ebc 40be 1461 173e 47bc 323d b146 ba3e
00000250: ba8f 04bd 8a14 a13e 11cf a0be a2e1 94be
00000260: 1586 cbbe 6d76 b03d b377 9ebe 9f76 3c3e
00000270: f80c 7abe 0e66 d83e e458 af3e 91a2 76be
00000280: ac12 74be e847 c23e e55a 5abe 7f4f 4bbe
00000290: eb99 d2bd 1f1c 93be 77e2 b7be b54b 53be
000002a0: 4076 ddbd f5c9 253e a7ca 9d3e 1cda bebe
000002b0: 2450 a1be 2dfd 7f3e 9f2b 853e ecdb 183e
000002c0: ed72 ad3e 43b6 ad3e c594 68be 8db8 053e
000002d0: 590b 923e c68c 9ebe f561 2dbe ecc5 6f3c
000002e0: df49 853e dbb6 9c3e b331 0abe 577f e0bd
000002f0: f32b 90be b0e2 be3e 94d9 523e 3d8d 19be

fc.0.bias f4 [32]
0.038646862 0.25113502 0.22802275 0.35581446 0.23547745 0.31143165 0.29346603 0.014838288
0.14068553 0.13861401 0.076112434 0.34146836 0.3517245 0.12367224 -0.12708737 -0.24425855
0.20469679 -0.009283963 -0.13183081 0.1549161 -0.18200113 -0.29598075 -0.35456604 0.14591587
0.10853103 0.4061486 0.060657028 0.37910238 0.25415683 0.028467325 0.43004853 0.053354435
00000000: 2c4c 1e3d c594 803e cc7e 693e 502d b63e
00000010: 0021 713e f873 9f3e 2e41 963e 4a1c 733c
00000020: de0f 103e d5f0 0d3e d6e0 9b3d f1d4 ae3e
00000030: 3c15 b43e df47 fd3d 3123 02be ea1e 7abe
00000040: 099c 513e c31b 18bc a8fe 06be 53a2 1e3e
00000050: 815e 3abe ca8a 97be ae89 b5be f86a 153e
00000060: 8445 de3d b6f2 cf3e 8173 783d b519 c23e
00000070: d820 823e 4f34 e93c 522f dc3e 2e8a 5a3d

fc.3.weight f4 [16, 32]
0.10702297 -0.043283537 0.13177466 -0.13941832 0.044063907 0.008763626 -0.105073385 -0.076089144
0.12784995 0.14342843 -0.08314892 0.0027770374 0.10256907 -0.041158605 -0.08958985 0.0040570865
-0.11633923 0.013093962 0.16292027 -0.034277424 -0.1277168 0.052074347 0.0024466766 0.07843285
0.05134677 -0.11518266 0.031022005 0.10397657 -0.07337737 0.14138922 0.029724713 0.041986573
-0.0245546 -0.14451465 -0.061425492 -0.03770324 0.16183539 0.16574089 0.18139072 0.11881628
0.12576953 0.15219928 -0.105665185 0.14057821 0.08404715 0.15292227 0.14517513 0.09265942
-0.090192944 0.1789125 0.12409714 0.17061754 -0.10308416 0.17510043 0.085640326 -0.08447847
0.017417766 0.15920472 0.16597326 -0.06826937 0.015961492 0.10849035 0.0284901 -0.117349505
-0.001256273 -0.15336636 0.17719845 -0.1172625 0.10974058 0.07147365 0.0072378046 -0.04481929
0.18852109 -0.13085516 -0.146001 0.17691907 0.09460869 -0.09188915 0.073132426 0.13108835
0.07240049 -0.05719225 0.0637007 0.18239199 -0.035350822 0.16750848 -0.054347906 0.10902271
0.13724107 0.09089925 0.16387376 0.017812265 0.07589992 0.058827348 0.13010664 0.012219878
0.13431354 0.11083407 0.00922466 0.07845412 0.07827101 -0.12357615 -0.10149756 -0.013545579
-0.127816 0.12596978 -0.049986746 0.041986745 -0.055643052 -0.10522165 -0.042842515 -0.09593203
0.13018435 -0.11495607 -0.0053929547 0.2006415 -0.1387256 -0.03324241 -0.08964746 0.07451776
-0.10348768 0.1374781 0.11824509 0.012689162 0.00836033 -0.12963897 -0.095543094 -0.07695919
0.06489965 0.0782746 0.14179356 -0.12635553 0.1268148 0.019834092 0.07759842 -0.028052634
0.16858244 -0.051614072 -0.16272837 0.100020625 -0.09920182 -0.037220396 -0.050839853 -0.10917758
0.026339363 0.10572712 0.08351228 -0.07908339 -0.004411256 -0.023307577 -0.045060553 -0.12648542
0.094447695 0.07644565 -0.1634053 0.04270852 0.13843033 0.059713148 -0.055220038 0.005513643
0.122520015 -0.014854307 -0.05336798 -0.07207567 0.070085965 0.17645688 0.06259537 0.15359645
-0.06377085 0.072730005 0.075150535 -0.12356861 0.13006651 -0.031801924 -0.027172888 0.007404887
-0.03840158 0.018489502 0.16152841 0.04281253 -0.10611804 -0.09543922 0.12415593 0.035840604
-0.041964557 0.02338726 -0.15815312 0.14999022 -0.09730905 0.11063319 -0.08068313 -0.024559593
0.005528788 -0.04624392 0.15010835 -0.00028959985 -0.09820079 -0.1000159 0.15453853 0.0035193386
-0.14814861 -0.13167953 0.047070738 0.045391068 0.057199836 0.09969468 -0.0045559546 0.111226656
-0.02430739 -0.021480693 -0.13971756 -0.061426938 -0.015747648 -0.13398348 0.15532623 -0.053965047
-0.098724045 -0.020345775 0.047344573 -0.09672406 0.19901513 0.15681121 -0.0719378 0.049754433
-0.10161896 0.06459922 -0.022238925 -0.08574295 -0.18021807 -0.026597828 -0.11072689 -0.17092465
-0.16874947 0.09981343 0.06824364 0.018036563 0.11295072 -0.061532505 0.0993954 -0.14570326
-0.0628993 -0.16242023 0.15531015 -0.16352569 -0.06971896 0.004569456 -0.0054943413 -0.13911271
-0.12793887 -0.079606056 -0.11047849 -0.122522675 0.12530328 0.09454272 -0.07909429 -0.12951733
00000000: dc2e db3d 144a 31bd f0ef 063e adc3 0ebe
00000010: 5b7c 343d 5095 0f3c b730 d7bd a0d4 9bbd
00000020: 19eb 023e e7de 123e fb49 aabd f5fe 353b
00000030: bc0f d23d ed95 28bd e27a b7bd 4ff1 843b
00000040: 4343 eebd 0f88 563c 92d4 263e 7c66 0cbd
00000050: 31c8 02be e94b 553d 6c58 203b 67a1 a03d
00000060: fe50 523d e3e4 ebbd dc21 fe3c abf1 d43d
00000070: e046 96bd 56c8 103e 3e81 f33c 1dfa 2b3d
00000080: ba26 c9bc a6fb 13be 4c99 7bbd b66e 1abd
00000090: 2db8 253e fbb7 293e 7dbe 393e f355 f33d
000000a0: bac9 003e 21da 1b3e fd66 d8bd bcf3 0f3e
000000b0: ea20 ac3d a897 1c3e caa8 143e 39c4 bd3d
000000c0: 14b7 b8bd d734 373e a426 fe3d 5db6 2e3e
000000d0: ca1d d3bd 874d 333e 3264 af3d 0c03 adbd
000000e0: b4af 8e3c 9006 233e e5f4 293e d0d0 8bbd
000000f0: adc1 823c 3030 de3d 1264 e93c f054 f0bd
00000100: 87a9 a4ba 120c 1dbe 8373 353e 5227 f0bd
00000110: abbf e03d c760 923d 1b2b ed3b 6f94 37bd
00000120: ac0b 413e e5fe 05be 4981 15be 462a 353e
00000130: 33c2 c13d 6130 bcbd 74c6 953d 063c 063e
00000140: b546 943d 6c42 6abd 8375 823d f7c4 3a3e
00000150: 06cc 10bd 5887 2b3e e99b 5ebd 4c47 df3d
00000160: ec88 0c3e 6329 ba3d 86ce 273e 07eb 913c
00000170: 6b71 9b3d f2f4 703d ad3a 053e e235 483c
00000180: 7d89 093e f9fc e23d 0723 173c 8eac a03d
00000190: 8d4c a03d 7e15 fdbd f4dd cfbd 47ee 5dbc
000001a0: 33e2 02be 39fe 003e e7be 4cbd 4bfa 2b3d
000001b0: f8e9 63bd 737e d7bd a27b 2fbd 0378 c4bd
000001c0: 0c4f 053e 176e ebbd 62b7 b0bb f774 4d3e
000001d0: 150e 0ebe 3129 08bd 1699 b7bd c49c 983d
000001e0: 59f1 d3bd 0fc7 0c3e 7b2a f23d 34e6 4f3c
000001f0: c4f9 083c 14c0 04be 19ac c3bd c89c 9dbd
00000200: 1cea 843d 6f4e a03d 5532 113e 5863 01be
00000210: bddb 013e 1b7b a23c eceb 9e3d a3ce e5bc
00000220: e0a0 2c3e 4769 53bd 44a2 26be 9dd7 cc3d
00000230: 532a cbbd 6a74 18bd 733d 50bd 7f98 dfbd
00000240: a6c5 d73c 7687 d83d 7c08 ab3d 79f6 a1bd
00000250: 4c8c 90bb 88ef bebc 6a91 38bd 6585 01be
00000260: cb6d c13d 898f 9c3d b853 27be 21ef 2e3d
00000270: aec0 0d3e c695 743d 682e 62bd caab b43b
00000280: c6eb fa3d 7b5f 73bc 6298 5abd 699c 93bd
00000290: 3b89 8f3d 1db1 343e 0032 803d 6348 1d3e
000002a0: 4b9a 82bd 78f3 943d 86e8 993d 8a11 fdbd
000002b0: 2830 053e bc42 02bd ad99 debc b2a4 f23b
000002c0: fa4a 1dbd 4c77 973c b467 253e 315c 2f3d
000002d0: 6a54 d9bd a375 c3bd 7745 fe3d 99cd 123d
000002e0: 07e3 2bbd a496 bf3c e4f2 21be 0997 193e
000002f0: f849 c7bd a793 e23d 323d a5bd 3331 c9bc
00000300: d62a b53b 446a 3dbd 01b6 193e 6fd5 97b9
00000310: 7f1d c9bd 23d5 ccbd 593f 1e3e b4a4 663b
00000320: 45b4 17be 00d7 06be 3fcd 403d fceb 393d
00000330: 604a 6a3d b92c cc3d 1e4a 95bb cdca e33d
00000340: 4b20 c7bc 47f8 afbc 1f12 0fbe d09a 7bbd
00000350: 3601 81bc f732 09be d70d 1f3e 740a 5dbd
00000360: d52f cabd 2fac a6bc 62ec 413d 4417 c6bd
00000370: 9fca 4b3e 1e93 203e 2054 93bd 4ecb 4b3d
00000380: 9a1d d0bd 994c 843d 682e b6bc 009a afbd
00000390: 168b 38be b0e3 d9bc c8c4 e2bd df06 2fbe
000003a0: a9cc 2cbe fc6a cc3d 52c3 8b3d 6ac1 933c
000003b0: b552 e73d 8209 7cbd d18f cb3d 3c33 15be
000003c0: 59d1 80bd 7d51 26be a009 1f3e 4773 27be
000003d0: d0c8 8ebd 60bb 953b e009 b4bb 9073 0ebe
000003e0: 6802 03be 8008 a3bd 8c42 e2bd 2bed fabd
000003f0: 814f 003e 9d9f c13d 30fc a1bd 31a0 04be

fc.3.bias f4 [16]
-0.095376395 0.1789021 0.049710628 0.13163404 -0.13943826 -0.14629494 -0.06327865 0.0012682672
-0.02414113 0.07111247 0.057745647 0.09989351 0.14216034 -0.065782554 -0.037899695 -0.17457607
00000000: b354 c3bd 1d32 373e 5f9d 4b3d 13cb 063e
00000010: e7c8 0ebe 57ce 15be 3d98 81bd fc3b a63a
00000020: 9ec3 c5bc 6aa3 913d b386 6c3d f894 cc3d
00000030: 7b92 113e 01b9 86bd b63c 1bbd 12c4 32be

fc.6.weight f4 [1, 16]
-0.037922587 0.016873475 0.23773706 0.19075325 -0.048619505 0.20289887 0.25259814 0.05910383
0.2274407 -0.17812121 0.19446667 -0.1255967 -0.07067993 0.2304814 0.17693228 0.1294871
00000000: b754 1bbd 3e3a 8a3c 5871 733e d254 433e
00000010: 3f25 47bd b9c4 4f3e 8b54 813e dc16 723d
00000020: 37e6 683e 6865 36be 4522 473e 6c9c 00be
00000030: a4c0 90bd 5103 6c3e bc2d 353e 4498 043e
