d2draftnet/models/test_model.pth (torch, 7992 bytes, 6 tensors)

embedding.weight f4 [127, 3]
00000000: 0000 0000 0000 0000 0000 0000 d409 123f
00000010: 5bfd 683b eb73 8ebe 8ab5 ab3d 254c ca3f
00000020: 3c3e c33f 6e08 e13f 9d1e 5abf cbc7 523d
00000030: ef7e a9bf 95f4 20bf 6a8b 7ebf 59af 663f
00000040: 35b9 633f fbaf 2a3f 3b89 5bbe 1cd0 0d40
00000050: db80 b33e 52c8 26bf 8979 a43f 0eae 85bf
00000060: ffa2 6c3e dc44 4440 5216 af3e 755c 0a3f
00000070: f3a9 07bf 7d23 163f cd46 aabf 58f3 13be
00000080: ff76 3abf f565 aebf ab40 03c0 46fb 9dbf
00000090: 40e2 323f 7b56 9fbf 1261 1fbf 9a10 0a3e
000000a0: 77e7 38bf 601e ad3f 4965 e2bf efdc 923f
000000b0: c3ee 823f d706 cebe c918 ce3f 5305 253d
000000c0: 7abe 0140 4909 e7bf d519 473d b717 2bbe
000000d0: b104 aa3f 15ae f0bc 559b 203f e6ad 483f
000000e0: 358e b0bf d075 d03d 5eff 603d c657 0440
000000f0: 512d 52c0 f852 fb3e 1355 c13f c1de 9dbd
00000100: b6a3 a7bf dc58 3a40 7b57 7fbe 5511 afbf
00000110: 32cd edbe f63b e13e a33a 8c3f 16e7 043e
00000120: b649 4cbe cb12 403f 6af5 96bf 2eb1 853f
00000130: d133 bebf 6ed2 833d 402f 5cbe 7f3d 24bf
00000140: 2adc c5be eb68 e8bf 3666 e53f 1a4d 5ebf
00000150: 6caa e139 fca4 3ebf 9e4b 913f 5778 5abf
00000160: 0bf6 42bd 296e 9bbf b778 383f 1cf4 a23f
00000170: 56e6 c0bf c247 20bf 0e58 07bf 630f 07be
00000180: eb9f 0cbe 8e01 b9bf a219 2f3f dcdd c3bf
00000190: d1d9 6b3f 58be 1cc0 44c2 93bf 8912 d23e
000001a0: 62a9 35bf 83ea 00be eb44 ac3e 5b3e 503e
000001b0: dbef 473e 2a29 473f abec 943f c8ed f9bf
000001c0: 3bc4 6ebf dbce 71bc 5871 28bf f216 8f3f
000001d0: 8829 2740 8f6b c23f 3cf3 393f 02a8 c6bf
000001e0: bce7 133f 9922 f63f 037c 923f 402a 883f
000001f0: 4a94 9abf baf0 953e 933d 263f 655f 503f
00000200: 0457 b33f d1be 0440 5f8e 463f 68ad a2bf
00000210: 9cd4 983f ef5a 0ec0 1318 85bf 3254 243f
00000220: de71 723e 5b1a 0c40 46a9 30bd d8fe d73e
00000230: c906 1abc a8a4 aebf 812e 46bf c08d 823f
00000240: 0249 d63f 7b3a 0abf 573e 863e cba7 1abf
00000250: e59e 92bf 513f a3be 6e7d 9abe f9e5 1ebf
00000260: d9da 363f 7488 c73f 7233 8bbf d454 afbe
00000270: d922 65bf c7da 9d3e 4dfc c23d 8488 5bbe
00000280: 05d6 8cbf 39bf c53f 301b f5bd 885b b4bf
00000290: 5e7d 4c3f a107 97be c1e1 1f40 d608 78bf
000002a0: 21f7 afbf 283b ebbd 8997 4bbe 9434 8e3f
000002b0: 41fb 55bf 3500 babe 55c1 383e fc02 9f3e
000002c0: 9c88 37c0 2eee 9c3e da60 ff3c 3ec8 333e
000002d0: 06b8 61bf 64c0 81bd 62fc 2cbf ceff 533e
000002e0: 3620 89bf d913 843e 6e63 24bf 1518 3bbf
000002f0: d5f6 b53f 57e7 8cbe 3f97 9e3f b9c2 2840
00000300: 4003 033f 8afe b9bd 5a60 f5be ff41 533e
00000310: 5108 243f c409 ec3e 7648 ae3f 736b 923f
00000320: c372 d4bd 912e b5bf 8183 a33f ec0d 373e
00000330: ceda adbf 2ff2 e5bf b888 4f3f 3e5c af3e
00000340: 42fe 3c3f d694 603e 7ca6 6e3f 65c5 7c3e
00000350: 007a ab3f 0cc7 0d3f fa78 e63c 9b0a 2040
00000360: c85e 4dbd 991b 1c3d e3cf c53f 934f e9bf
00000370: 269d c73e 78e4 e9be f25b e8be b836 63bf
00000380: f5b6 4f3f 9b7b f63f e093 0d40 9067 363f
00000390: d5f4 be3e 36ac 3c3d 6abd 89be 25fe 0cbf
000003a0: b8da f63f c511 41bf 0671 03bf 1d75 cd3e
000003b0: aec1 12bf 69b3 76bf 50fe 0e3f b763 a9bf
000003c0: 0170 443e 8c2a 4d3e 0fc3 40bf fe58 863f
000003d0: a096 883f 9c6b 7a3f 790f 51bf adcb 0dbe
000003e0: d2f7 df3f d985 cdbe 2a7a 0dc0 2a43 cd3e
000003f0: 7f7b 2bbd ada3 a33f 128b dc3f fcfc f33e
0.0 0.0 0.0 0.57046247 0.0035551402 -0.27822813 0.08384235 1.5804487
1.5253367 1.7580698 -0.8520296 0.05146007 -1.3241862 -0.628732 -0.9943148 0.9011131
0.8895448 0.66674775 -0.21439068 2.215827 0.35059246 -0.65149415 1.284959 -1.0443742
0.23109053 3.0667028 0.34196717 0.5404733 -0.52993697 0.586479 -1.3302857 -0.14448297
-0.72837824 -1.3624865 -2.050822 -1.2342308 0.6987648 -1.2448267 -0.6225749 0.13482895
-0.7222819 1.3524895 -1.768716 1.1473674 1.0229114 -0.40239593 1.6101314 0.04028828
2.0272508 -1.8049709 0.04860862 -0.16708265 1.3282682 -0.029379884 0.6273702 0.7839035
-1.3793398 0.10178721 0.054931037 2.0678573 -3.284016 0.49086738 1.5104088 -0.077085026
-1.3096836 2.9116735 -0.24935715 -1.3677164 -0.46445614 0.4399106 1.0955395 0.12978777
-0.19949993 0.75028676 -1.1793644 1.0444696 -1.4859563 0.06436621 -0.215024 -0.64156336
-0.38644534 -1.8157018 1.7921817 -0.868364 0.00043042318 -0.74470496 1.1351202 -0.85339874
-0.047597926 -1.2142993 0.72059196 1.2730746 -1.5070293 -0.62609494 -0.52868736 -0.13189463
-0.13732879 -1.44536 0.6839849 -1.5302081 0.92129236 -2.4491177 -1.154366 0.41029766
-0.7096158 -0.12589459 0.3364633 0.20336287 0.19525091 0.77797186 1.1634725 -1.952569
-0.93268174 -0.014758791 -0.6579795 1.1178877 2.6119099 1.5189074 0.7263677 -1.5520022
0.57775474 1.9229308 1.1444095 1.0637894 -1.2076504 0.29285222 0.64937705 0.8139556
1.401093 2.0741465 0.7756099 -1.2709169 1.1939883 -2.2243001 -1.0397972 0.6419097
0.2367625 2.1891086 -0.04313018 0.42186618 -0.009401032 -1.3643999 -0.7741471 1.0199509
1.674103 -0.53995484 0.26219437 -0.6041228 -1.1454741 -0.31884244 -0.3017382 -0.6206966
0.71427685 1.5588517 -1.0875075 -0.34244406 -0.895063 0.30830976 0.09520779 -0.21438795
-1.1002814 1.5448982 -0.11968076 -1.4090433 0.79878795 -0.29498008 2.498154 -0.9688848
-1.3747293 -0.114858925 -0.19882025 1.1109796 -0.8358651 -0.36328283 0.180425 0.31056964
-2.867713 0.30650467 0.031174112 0.17556855 -0.8817142 -0.06335524 -0.67572606 0.2070305
-1.0712955 0.25796393 -0.6421422 -0.7308362 1.4215952 -0.27520248 1.2389907 2.636885
0.51176834 -0.090817526 -0.47925073 0.20630644 0.6407519 0.461012 1.3615863 1.1439041
-0.103734516 -1.4154836 1.2774507 0.17876405 -1.3582399 -1.7964534 0.8106799 0.34250063
0.73825467 0.21931776 0.93222785 0.24684675 1.3396606 0.55381846 0.028133858 2.5006473
-0.05013922 0.038112257 1.5454067 -1.8227409 0.38987082 -0.4568212 -0.4538265 -0.8875537
0.81138545 1.9256471 2.2121506 0.71251774 0.37296167 0.04606267 -0.26902324 -0.55075294
1.9285498 -0.7541774 -0.51344335 0.40128413 -0.5732678 -0.9636751 0.558568 -1.3233556
0.19183351 0.20035762 -0.75297636 1.0495908 1.0670967 0.9782045 -0.81664234 -0.13847227
1.7497504 -0.4014118 -2.2105813 0.40090305 -0.041865822 1.2784325 1.7229941 0.4765395

fc.0.weight f4 [32, 6]
00000000: d832 2ebe 1f73 573e 8cb1 f1bd 7a60 c3be
00000010: cae4 a4be 675e af3c 652e 4bbd 3f4f c4bb
00000020: fc8f b53d ff6b 903e b054 8f3e 7aef abbe
00000030: 28a2 82bd 743b 11be 24a5 833e 25ec 853d
00000040: cec6 b13e b29b 6bbe 5260 383e 83bf 04be
00000050: 68e0 2b3d 702c 89bc 9c17 253f 20a0 a43e
00000060: 5261 9d3e c58e 3cbc 4ee4 c73e 0a59 dabe
00000070: cca7 ab3e 96a7 3b3e ae7f 843e 231c bf3e
00000080: b025 90be 5194 b73e 5a1f ad3e ae61 8e3c
00000090: a60d df3d 3134 40bd 36b4 6b3e 2582 973e
000000a0: 3d30 ed3e 6f47 06bf 6269 d1be bfd1 86be
000000b0: 2df9 9dbe 8412 5c3e 7b39 e93e 4276 80bd
000000c0: e87d d8be e90e 6ebe 42e8 2b3e dde3 b4be
000000d0: af22 893e 3afe b33e 9448 afbe 33b6 0fbe
000000e0: ca7e 623e 7624 d2be 4115 39bd 292b 83be
000000f0: 2621 61be af31 d1bd 659b cc3d 6efa 29be
00000100: 4c15 86be 1f81 0abf e49f b33e b421 f4bd
00000110: 8ff5 a0be 0c07 dd3d a4e8 c7be f450 10bf
00000120: e710 4ebe 32cc 85be d142 30be be0d debe
00000130: 1930 ebbe 5b52 b63e 5035 be3e 50c8 71bd
00000140: 9988 bd3e 9e22 49bd fa70 c83e b4c4 8e3e
00000150: 045b 5abe f4b2 ec3e 0b1f 56be 7881 673e
00000160: 052b 8abe bf4c 2c3e 0dff 073f 1945 73be
00000170: f125 84be 963f 09be d5fe edbd 5919 51be
00000180: f4a1 84be 8674 b5be 5c9f 08be d720 cdbe
00000190: 2b50 7b3e 320d b93e 4e2a 98be 4a84 153f
000001a0: 8df2 073d a5e1 5c3e 36ac 1ebe 3a63 04bd
000001b0: 6f72 113f 3c40 5ebe cf20 a53e efd9 13be
000001c0: 8569 533e 00f8 373e e35c b7bd add1 3dbe
000001d0: 4c02 ffbe 7417 f2be 0c58 b73e 95de 4dbe
000001e0: fcff 0abe b7f9 403e cadf fdbe a186 d23e
000001f0: 686e 5ebe 59a8 9f3e 3eee 193e b71f 993e
00000200: d2be 3a3e 5f22 283f a152 bc3e ca3d 803d
00000210: 1d50 973e 6f29 333e afe9 5cbe d5ad d2be
00000220: 7d2b 80bd 5f1f 87be 33b4 e73d 4eb7 f9be
00000230: 55f1 953e 4668 423e 5803 8c3e e886 1bbe
00000240: ef9a ab3e 5be5 d2be bfcd 9cbd e28c 623e
00000250: 801d 333e 9b9f 8e3e c8f5 ccbe 21cb cf3d
00000260: 9855 cfbd 0d3a 003f 190a 92be b8ec f1be
00000270: c8ba c5bd f636 2dbe f4e9 423e cc44 cb3e
00000280: a2a5 07bf c42d f2bc 3f18 dd3e 6209 b4be
00000290: 673d fa3e fdd3 bdbc 8124 eabe eeb5 59be
000002a0: 0f44 3abe 788b 45bd 96a1 5e3e 9fc0 4f3e
000002b0: 5470 91be 15d1 bbbe 6945 a1be d12d 12be
000002c0: 7545 043f abf6 a0be ab04 f83e a169 1a3f
000002d0: 2a67 ad3e 730c 87be e8f0 bb3e a13b d63e
000002e0: 7189 d43e b073 b53d ed86 b3be a08f 8cbe
000002f0: 2cf6 3b3d fa88 62be d2b4 f73d 25b6 56be
-0.17011583 0.21040009 -0.118014425 -0.38159543 -0.32205802 0.02140732 -0.049604792 -0.005990892
0.088653535 0.28207394 0.279943 -0.33581144 -0.06378585 -0.14182836 0.2571193 0.065391816
0.34721988 -0.23008612 0.18005493 -0.12963681 0.041962057 -0.016744822 0.6448915 0.32153416
0.30738312 -0.011508648 0.3904137 -0.42646056 0.33526456 0.18325648 0.25878662 0.37326154
-0.28153753 0.35855344 0.33812982 0.017380562 0.10891275 -0.046924774 0.23017964 0.2959148
0.46325865 -0.5245275 -0.40900713 -0.263319 -0.3085417 0.21491438 0.45551667 -0.06272556
-0.4228356 -0.23247875 0.16787818 -0.35330096 0.26784274 0.35154897 -0.3423506 -0.14034347
0.22118679 -0.41043442 -0.045186285 -0.25618866 -0.21985301 -0.102145545 0.09990577 -0.16599438
-0.26188123 -0.54103273 0.35082924 -0.11920491 -0.31437346 0.1079236 -0.39044678 -0.56373525
-0.20123635 -0.2613235 -0.17212988 -0.4336986 -0.45935133 0.35609707 0.3715005 -0.059028924
0.37018278 -0.04910528 0.39148694 0.27884448 -0.21323782 0.4623028 -0.2091028 0.22607982
-0.26985946 0.16826151 0.5312355 -0.23756827 -0.25810197 -0.13403162 -0.11620871 -0.20419826
-0.2590481 -0.35440463 -0.13342041 -0.40064117 0.245423 0.3614288 -0.29719776 0.5840498
0.0331903 0.21570452 -0.15495381 -0.032321192 0.56815237 -0.21704191 0.32251593 -0.14438604
0.20645721 0.17965698 -0.089532636 -0.18537016 -0.4980644 -0.47283518 0.35809362 -0.2010444
-0.13574213 0.18845259 -0.495848 0.4111834 -0.21721804 0.31183127 0.15032288 0.2990701
0.18236855 0.65677446 0.3678179 0.06261785 0.2955331 0.17496274 -0.21573518 -0.41148248
-0.06258295 -0.26391122 0.11313667 -0.48772663 0.29285684 0.1898509 0.273463 -0.15188181
0.33516642 -0.4119061 -0.076564305 0.22124055 0.17491722 0.27856144 -0.40031266 0.10146166
-0.101237476 0.5008858 -0.2852333 -0.47250915 -0.09654766 -0.16915497 0.19034559 0.39700925
-0.5298711 -0.029562838 0.4318256 -0.3516341 0.4887497 -0.023172373 -0.45730975 -0.21260807
-0.18190025 -0.04822871 0.21741328 0.20288323 -0.28406012 -0.36682954 -0.31498268 -0.1427529
0.51668483 -0.31438193 0.4844106 0.60317427 0.3386777 -0.26376686 0.36707234 0.41842368
0.4151111 0.08859956 -0.35063878 -0.27453327 0.045889065 -0.22122565 0.120950356 -0.2096792

fc.0.bias f4 [32]
00000000: 73c1 50be c256 853e 9e9c 163e db82 1bbe
00000010: ef52 943d 5626 693e 47da b5bd 6b38 b13e
00000020: 5856 8bbe af9c 713e 6990 a53d 61b0 56be
00000030: 8750 72be faf8 edbd c512 b1be c54c 2b3e
00000040: fff6 28be 576f a0bd 4f95 9abc 0fe1 b0bd
00000050: 1489 ae3d 2195 403e 7b6b d13e fecb fd3d
00000060: 2c61 6d3e dec2 8b3e f9ea ee3e b4ef 91be
00000070: d78d f73e 363f 713e fa36 953e 372e 823e
-0.20386295 0.26042753 0.14708182 -0.15186636 0.07242381 0.2276853 -0.08879524 0.34613356
-0.27214313 0.23594926 0.08084185 -0.2096572 -0.23663531 -0.11619754 -0.34584633 0.16728504
-0.16500472 -0.078337364 -0.018870024 -0.086366765 0.08522239 0.18806888 0.40902314 0.12392424
0.231816 0.2729711 0.46663645 -0.2850319 0.48350403 0.2355927 0.29143506 0.25425884

fc.3.weight f4 [16, 32]
00000000: 9b82 bcbd 84cb ebbb 0db8 113e 3c7f 053e
00000010: fbf2 073e 98bf 6b3d 2ee7 17be 0926 263e
00000020: 43e9 8fbe 6119 33bc 144e 643e ede9 233f
00000030: 0931 44bd 4270 27bd 427d 9bbe 7213 8c3e
00000040: 0522 b2bd c6cc 9f3d 1bb3 d43c 0815 c0bd
00000050: abaa 3c3e ef80 78bc 6b00 7a3e f1f0 f5bb
00000060: a6a4 0f3c 677e f13d e727 4b3e 5d7b 993e
00000070: 7817 413d 0da5 553e e545 eabd 3014 03be
00000080: 2c9c 1dbe 58ce eebc 9f48 8f3a 8be1 5fbd
00000090: 45b3 c43c 1bdf 50bc fa2d d7be a13f 203e
000000a0: 1f9b 383e a0d9 123e 631a ad3d 41c1 dd3c
000000b0: 3a0f a0be 90de 533e a183 1ebe 7d6c 27be
000000c0: 7e8b 1abe c72e 1fbd 5b32 f7bc d8d4 0abe
000000d0: 1542 243e de21 8e3d 0f96 96bd 7022 95be
000000e0: c435 7fbd 71a3 553e 56a7 623e 2575 76bd
000000f0: 5a5d c43d e44e 2abd 0199 75be ec8f c8bc
00000100: cdb7 8cbe 0244 e93d 8386 043e bf2b a8be
00000110: 289a 43bd 2a55 4f3d 3ca8 8e3e f476 7abe
00000120: 4cd7 9bbc 7795 003e d63a e1bd 555e 00bf
00000130: 6d32 6abe e938 4c3e 1202 9c3d e736 39bd
00000140: e435 a3bd d2a0 40bd 4a10 893d e221 dbbd
00000150: 2bdb d63d a58a 683e a4d3 183e 1480 ee3d
00000160: c4ee 1dbe d75d 2bbc 096a 3e3d bbf5 873d
00000170: 5412 403e 3c51 9fbd c9e1 b0bd 34c3 9ebd
00000180: 4452 54bd 9edf fcbd 6682 da3c fa3c 233e
00000190: 9299 5ebe 89b6 8c3e 3d27 fc3c 2eec af3d
000001a0: a10f 62be 7344 67be f0e6 89be 2a49 b3bd
000001b0: 2462 28b9 f438 a2bc 86d6 f23c 627a 2dbd
000001c0: aa43 133e 3d59 e93d 1339 9bbe 1163 153e
000001d0: 85a3 413e e32a 71be 3bbf 843c e155 c43d
000001e0: fd7e c4bc 524d d6bd f580 94bc cd97 383e
000001f0: 9159 77be 0054 ce3d 183f 90bd d7f7 c23d
00000200: 2af8 9fbd 2f84 2ebd 01c8 8e3d 5dda 653e
00000210: 5e28 b23d 87a4 873d 90bb db3c 5355 f0bd
00000220: d27f 103e 5b54 5fbd 2036 ab3e 4388 a73d
00000230: 2f67 493e d335 16bd db69 373e 19da 80be
00000240: a65c d93d d6a9 c93c 5515 e5bd 50a5 9bbe
00000250: 5a2e 71bc db80 01be 35d2 cfbe 4dbf 23bd
00000260: abb5 823d b2fe 56be fdfd a0bd 3b48 b8bb
00000270: dc75 ebbd f64e 653e 1237 0e3e 38cb 1b3e
00000280: 536d 64be 3658 513d 1f0c f8bd e8e6 6e3e
00000290: 6b5d 263d 50f2 203e e437 ccbd ab01 b53d
000002a0: 1678 fabd c2f1 333e 1c4c 313e 69ba 973e
000002b0: b493 29be a6fe 473e 4e20 70be c724 663a
000002c0: c6cf f2bd e716 dcbb a214 5e3e b2d7 8d3c
000002d0: d810 083e 2a1d 4bbd 30e3 3d3e 2617 95bb
000002e0: ef41 e13d b6c0 39bc d77e 20bd 6873 2a3e
000002f0: b99d 70bd 7134 143e 92a2 bc3c 9bbb 85bc
00000300: bb49 803e d458 2c3e 8cf9 273e cf67 14bf
00000310: b136 df3b d503 d13d d607 7b3e 0633 0ebe
00000320: ca0c dcbe f3d7 49be 8e7b 8bbe 3b85 b6be
00000330: 3bb0 2e3e bd5c 70be 554b 113d 4287 35be
00000340: 45b4 debe 2190 413e ce89 50be 1460 a6be
00000350: 4b3e 2fbe c259 823e dfdb 613d 8279 a43e
00000360: c802 0f3e 970b 2e3e 17fe 5ebc 4dc5 a3bc
00000370: 1238 c83d ef9c 8ebe 6445 193e 9b59 043e
00000380: 4db1 b53d e6cf 6fbe cc65 c1bd f796 023e
00000390: 71fc d33c 4d38 33be acfe 8cbd 628d 19bc
000003a0: 8c7a d03e c6ae 0b3d eae9 043d 8251 dcbd
000003b0: 5ed8 c1bd 52ed f83c 457c e23b fccc f03d
000003c0: 08d8 aa3e c238 aebd b892 ffbd 35e9 693e
000003d0: ef25 8abe 4164 2bbe a6e2 a03d 75f0 9dbd
000003e0: 9811 ed3d 02cd 4ebe 5bc1 e3bd 7084 cdbe
000003f0: 04f6 b3bd fc1d 363e fe76 07be 03a6 553e
-0.092045985 -0.007195892 0.14230366 0.13036817 0.13276283 0.057555765 -0.14834282 0.16225447
-0.28107652 -0.010931344 0.2229541 0.6402882 -0.047898326 -0.04087854 -0.30369002 0.27358586
-0.08697895 0.07802729 0.02596431 -0.093790114 0.1842448 -0.015167459 0.24414222 -0.007505529
0.008767283 0.117916875 0.1983944 0.2997693 0.047141522 0.20863743 -0.114391126 -0.1280067
-0.15391606 -0.029151127 0.0010931677 -0.054658454 0.024011264 -0.012748505 -0.42027265 0.15649273
0.18027924 0.1434083 0.084522985 0.02706969 -0.31261617 0.2069037 -0.154799 -0.16349979
-0.15092275 -0.03886297 -0.030175379 -0.13557756 0.16040833 0.069400534 -0.0735284 -0.29127836
-0.062307134 0.20863129 0.22134146 -0.06017031 0.09588118 -0.041579142 -0.23984148 -0.02448269
-0.2748398 0.113899246 0.12941937 -0.32845876 -0.047754437 0.05061833 0.27862728 -0.2445944
-0.01902356 0.12557016 -0.1099755 -0.5014394 -0.22870798 0.19943585 0.076175824 -0.045218375
-0.07969263 -0.04702837 0.0669256 -0.10699822 0.10491022 0.22709139 0.14924484 0.11645523
-0.15423113 -0.010459385 0.04648784 0.06638666 0.18756992 -0.07779166 -0.08636815 -0.07752076
-0.051836267 -0.12347339 0.026673507 0.1594123 -0.2173827 0.27483013 0.030780429 0.085899696
-0.22076274 -0.22584705 -0.26934004 -0.08754189 -0.00016058289 -0.019802548 0.029643308 -0.04235304
0.1438128 0.11393974 -0.30316982 0.14588572 0.18910034 -0.23551516 0.016204467 0.095866926
-0.023986334 -0.104639664 -0.018127898 0.18026657 -0.2415526 0.100746155 -0.07043284 0.09519928
-0.078110054 -0.04260653 0.069717415 0.2244658 0.08699106 0.06623178 0.026822835 -0.11735024
0.1411126 -0.054523807 0.33439732 0.08180287 0.19668268 -0.036672425 0.17911474 -0.25166395
0.106133744 0.024617117 -0.111857094 -0.3039956 -0.014720524 -0.1264681 -0.40590063 -0.03997736
0.06382307 -0.20995596 -0.078609444 -0.005623845 -0.11497089 0.22393402 0.13888195 0.1521424
-0.22307329 0.051109515 -0.12111687 0.23330271 0.040616434 0.15717435 -0.09971598 0.08838209
-0.12229936 0.17572692 0.1731419 0.29634407 -0.1656025 0.19530734 -0.23449823 0.0008779284
-0.11856036 -0.0067165974 0.21687558 0.017314766 0.13287675 -0.04958836 0.18543696 -0.0045498786
0.10998904 -0.01133745 -0.039183464 0.16645586 -0.058744166 0.1447313 0.023026738 -0.016324809
0.25056252 0.1683076 0.16403788 -0.579709 0.0068119396 0.10205809 0.24514708 -0.13886651
-0.42978507 -0.19711284 -0.27242702 -0.35648522 0.17059414 -0.23472877 0.035472233 -0.17727378
-0.4349691 0.18902637 -0.20365068 -0.32495177 -0.17113607 0.25459105 0.055141326 0.32123953
0.13965905 0.16996609 -0.013610384 -0.019991541 0.097763196 -0.27854106 0.14967877 0.12924807
0.08871708 -0.2341915 -0.09443244 0.12752901 0.02587721 -0.17501946 -0.06884512 -0.009372087
0.40718496 0.034102224 0.03244964 -0.10757734 -0.09465097 0.0303866 0.0069117867 0.11757848
0.33367944 -0.085069194 -0.12479156 0.22842868 -0.26982066 -0.16737463 0.0785573 -0.07711879
0.11575621 -0.20195392 -0.11120864 -0.40140104 -0.08787158 0.17784876 -0.13228986 0.2086411

fc.3.bias f4 [16]
00000000: 968f ad3c a5db c9bd b6f2 abbd cd0a f33b
00000010: 9027 2dbe 2d00 893d d119 013d 264a 2f3c
00000020: 3c1f 28be cf7d e23d 2988 0fbe 5ac7 e73c
00000030: 6a4f d9bc 708c 47be 4ffa 19be 37a5 08bc
0.021186631 -0.09856347 -0.08395903 0.007417059 -0.16909623 0.06689487 0.03151876 0.010698831
-0.16418165 0.11059152 -0.14016785 0.0282933 -0.026527125 -0.19487166 -0.15036891 -0.008340172

fc.6.weight f4 [1, 16]
00000000: 367e 2b3e a7fc ad3e 065c 72be 309c 13bf
00000010: a296 c7be 95b6 863e 1d4e 01bf 0e75 9bbe
00000020: 4ee0 c4be a22e 8e3e 1810 aabe f340 09bf
00000030: b089 cc3e 0b39 0dbf bbdb d8be d844 243e
0.16747364 0.3398182 -0.23667917 -0.576602 -0.3898211 0.26311174 -0.50509816 -0.30362743
-0.3845238 0.27769953 -0.33215404 -0.5361473 0.39948797 -0.55165166 -0.4235514 0.16041887
