src/d2draftnet/models/7_39b_model.pth (torch, 7600 bytes, 6 tensors)

embedding.weight f4 [127, 3]
0	0x00000000	0.0
1	0x00000000	0.0
2	0x00000000	0.0
3	0x3c9acca2	0.018896405
4	0xbe891b65	-0.26778713
5	0xbe9c593c	-0.3053683
6	0xbc0780be	-0.008270441
7	0x3fa41117	1.2817715
8	0x3fff8f4f	1.9965609
9	0x3f53129e	0.8245028
10	0xbf4b226b	-0.7934939
11	0x3fee504b	1.8618253
12	0xbfecabad	-1.8489891
13	0x3ee4c52b	0.44681677
14	0x3f8fa776	1.122298
15	0xbf571bc6	-0.84026754
16	0x3f63ab75	0.889335
17	0x3fe4ee12	1.7885153
18	0x3dae63f1	0.08515156
19	0x3e93c644	0.28862202
20	0x3f21628a	0.63040984
21	0x3e939277	0.2882268
22	0xbdd4e041	-0.103943355
23	0xbf75ada9	-0.9596811
24	0x3d29a277	0.041414704
25	0x3ef115e9	0.4708703
26	0x3f6f8846	0.9356731
27	0xbf477f1a	-0.77928317
28	0xbf9b925f	-1.2154044
29	0x3d77e598	0.060521692
30	0x3f1853fe	0.5950316
31	0xbe54d55d	-0.20784517
32	0x3f968c67	1.1761597
33	0xbf9b2068	-1.2119265
34	0x3f925366	1.1431701
35	0x3eae30b9	0.34021547
36	0x3fc3139d	1.524036
37	0xbf841dc0	-1.0321579
38	0x3eaccc8c	0.33749807
39	0xbf61b453	-0.8816578
40	0xbfb10e86	-1.3832557
41	0x3f3e924f	0.74442
42	0x3f23c656	0.6397451
43	0x3e070222	0.13184407
44	0xbf752196	-0.95754373
45	0x3db40e58	0.08791798
46	0x3f4c9649	0.79916817
47	0x3f6e240c	0.93023753
48	0xbecae999	-0.39631346
49	0xbf46d63a	-0.77670634
50	0xbf54897d	-0.8302229
51	0x3ed6a530	0.41922903
52	0xbf54c25b	-0.8310906
53	0xbe359577	-0.17732798
54	0xc012942b	-2.2902935
55	0xbe1bf32b	-0.1522948
56	0xbf3f72d9	-0.7478462
57	0xbdbb93dc	-0.09159061
58	0x3dd45bb1	0.10369051
59	0x3f36c753	0.71397895
60	0xbf532cd7	-0.82490295
61	0x3e972d61	0.2952681
62	0x3e8f6caa	0.28012592
63	0x3f0dc94a	0.5538527
64	0x3f76a6fd	0.96348554
65	0x3fd9008b	1.6953291
66	0xbee08591	-0.43851903
67	0xbff75c97	-1.9325131
68	0xbfa2a306	-1.2706001
69	0x3f3e5893	0.74353904
70	0xbf110c2f	-0.56659216
71	0x3f9dcc8f	1.2328051
72	0xbfcff1db	-1.6245683
73	0x3f4a1c74	0.78949666
74	0x3f84318b	1.0327619
75	0xbe325df0	-0.17418647
76	0x3f4e77e0	0.80651665
77	0x3faa1044	1.3286214
78	0x3e5f3efc	0.2180137
79	0x3d9fa1a4	0.077945024
80	0x3edd4cd6	0.43222684
81	0x3ed76b55	0.42074075
82	0x3f3ff322	0.74980366
83	0xbe424527	-0.18971692
84	0x3d0a23a3	0.033725392
85	0xbdd78123	-0.10522678
86	0x3e7a747d	0.24458499
87	0x3df9aa33	0.12190666
88	0x3db5d2af	0.08878075
89	0x3d801ef7	0.06255906
90	0xbe041e59	-0.12902202
91	0x3ff9c48f	1.951311
92	0x3eea29a5	0.45734897
93	0x3ef9b5c5	0.48771492
94	0xbf083384	-0.53203607
95	0x3f41440f	0.75494474
96	0x3f22d526	0.6360649
97	0x3f4822d2	0.7817813
98	0xbebcfc2f	-0.3691115
99	0xbefc698d	-0.4929928
100	0xbf7d6cc5	-0.98994094
101	0xbf6be5dd	-0.9214762
102	0x3cc6c8a8	0.024265602
103	0x3f536293	0.8257229
104	0xbe3750c7	-0.17901908
105	0x3ff81305	1.9380804
106	0xbe4ab089	-0.19793905
107	0xbfeb53ff	-1.8385009
108	0xbdb844a6	-0.08997469
109	0xbf9a8fbf	-1.2075118
110	0xbf9dbb1d	-1.2322727
111	0x3f62af3d	0.8854864
112	0xc00aff03	-2.1718147
113	0xbf34a86c	-0.7056949
114	0xbf3384b0	-0.7012434
115	0x3fb381b6	1.402396
116	0xbf7e7a1c	-0.99405074
117	0x3e7284eb	0.23683517
118	0x3fdcd9e6	1.7253997
119	0xbffd9276	-1.9810321
120	0xbfc068f4	-1.5032029
121	0xbefbced6	-0.4918124
122	0xbf0c27db	-0.54748315
123	0xbec59790	-0.38592196
124	0xbcd91e45	-0.026503691
125	0xbf702fe9	-0.93823105
126	0xbd93fc02	-0.07225801
127	0xbf6a35fb	-0.9148862
128	0xc019fc67	-2.4060304
129	0xbf8980e1	-1.0742456
130	0xbed51d34	-0.41623843
131	0xbf99b8fe	-1.200958
132	0xbf0cf30f	-0.5505838
133	0xbf90597c	-1.1277308
134	0xbec8ac48	-0.3919394
135	0xbe350a11	-0.17679621
136	0xc038a6bd	-2.885177
137	0x3fcd67e3	1.6047329
138	0x3f2d60f1	0.67726046
139	0x3f921f98	1.1415892
140	0xbe6e0fec	-0.23248261
141	0x3ec2d757	0.38054916
142	0x3f5278bb	0.8221547
143	0x3f26bde8	0.65133524
144	0x3fb0c1f1	1.3809186
145	0x3faaa788	1.3332376
146	0x3f5844de	0.84480083
147	0xbf6ccda1	-0.92501265
148	0x3e548f51	0.20757796
149	0x3ff6b606	1.9274299
150	0xbe9ed2ba	-0.31020147
151	0x3fbaa132	1.4580443
152	0x3fac5acc	1.3465209
153	0xbf653d02	-0.89546216
154	0xbf14c7bc	-0.5811727
155	0x3eed866e	0.46391624
156	0x3e704a0f	0.23465751
157	0xbfa4f73f	-1.2887954
158	0xbe6aa4bc	-0.22914404
159	0x3f202cb6	0.62568223
160	0xbe5414c4	-0.20711046
161	0xbe99b7dc	-0.30023086
162	0x3eabe623	0.33574018
163	0xbf99fbc0	-1.2029953
164	0xbf831592	-1.0240958
165	0x3fa3548d	1.2760178
166	0x3dd599d7	0.10429733
167	0xbe86546d	-0.26236287
168	0x3f95ee5a	1.1713364
169	0x3e92bfe6	0.28662032
170	0xbf896524	-1.0733991
171	0xbf494c1e	-0.7863177
172	0x3e62262c	0.22084874
173	0xbf83bb28	-1.029149
174	0xbecbc24c	-0.39796674
175	0xbf5e0fa7	-0.86742634
176	0x3f997349	1.1988307
177	0x3d890cf0	0.06691921
178	0xbf404680	-0.75107574
179	0xbdcba9b4	-0.09944478
180	0xbf87727f	-1.0581816
181	0x3ed9d3d1	0.42544416
182	0xbdf5ed8d	-0.120082
183	0x3f83b97f	1.0290984
184	0xbe8f1ead	-0.2795309
185	0xbdbea8dc	-0.09309551
186	0xbf6b618e	-0.9194573
187	0xbf43c524	-0.7647269
188	0xbe26ffd1	-0.16308524
189	0x3f5f82a8	0.8730874
190	0x3f778e72	0.9670173
191	0xbfa8b747	-1.3180932
192	0x4019ba1b	2.401984
193	0xbf8f1e69	-1.1181155
194	0xbf9f4c95	-1.2445246
195	0x3ea6e373	0.32595405
196	0xbec54d1e	-0.38535398
197	0x3f665968	0.89980173
198	0x3de98a36	0.11403315
199	0xbd872161	-0.065981634
200	0xbef2c4d9	-0.47415808
201	0xbea8bd7c	-0.32957065
202	0x402439fd	2.5660393
203	0xbeea1318	-0.45717692
204	0xbf9c933d	-1.2232434
205	0xbf05dc85	-0.5228961
206	0x3f7fb3e6	0.9988388
207	0x3f6752f3	0.90360945
208	0xbeeac204	-0.45851147
209	0x3f2a8dbf	0.6662254
210	0x3e1a87b0	0.15090823
211	0x3e4a642d	0.19764777
212	0x3f27a710	0.6548929
213	0x3fbfbe62	1.4979975
214	0xbf131b3b	-0.57463425
215	0x3f719562	0.94368565
216	0xbd9dd535	-0.07706682
217	0xbe45abae	-0.19303772
218	0x3fad065c	1.3517566
219	0x3e39811d	0.18115659
220	0x3dee6642	0.11640598
221	0x3f73ab3d	0.95183164
222	0x3f749f0b	0.9555518
223	0xbf6d84c4	-0.9278071
224	0x3f6e59b6	0.9310564
225	0xbedd7b19	-0.4325798
226	0xbf14e137	-0.5815615
227	0xbfd72cb9	-1.6810523
228	0xbfbef9e3	-1.4920009
229	0xbeafe7a4	-0.34356415
230	0xc06ea26b	-3.7286632
231	0x3f5f0d6d	0.8712986
232	0x3f710906	0.94154394
233	0xbf52d72e	-0.8235959
234	0xbef1dc16	-0.47238225
235	0xbf86c36d	-1.0528389
236	0x3fae53fe	1.3619382
237	0x3dc5d40e	0.09659587
238	0x3e9f97b9	0.31170443
239	0xbfa33978	-1.2751913
240	0xbe73badd	-0.23801751
241	0xbf34894a	-0.70521986
242	0x4023698b	2.5533168
243	0xc002f49c	-2.0461798
244	0x3f65f55c	0.89827514
245	0xbf1ee9bc	-0.620754
246	0xbe59b435	-0.2126015
247	0x3e760c61	0.2402816
248	0x3ddfbc84	0.109246284
249	0x3ca25aed	0.019818747
250	0x3f5a343e	0.85235965
251	0xbf40d266	-0.7532104
252	0x3fc7a26d	1.5596443
253	0xbe5c045e	-0.21486041
254	0xc0115706	-2.2709365
255	0xbf945400	-1.1588135

fc.0.weight f4 [32, 6]
0	0x3da7625a	0.08173056
1	0x3e3b1c91	0.18272616
2	0x3df67bb6	0.12035315
3	0x3e46ed76	0.19426522
4	0x3e57256e	0.21010372
5	0x3dba588b	0.090989195
6	0xbe6b0e61	-0.22954704
7	0x3e20be5f	0.15697621
8	0xbe0d7ec8	-0.13817894
9	0xbe5c6837	-0.2152413
10	0x3eeabb1f	0.45845887
11	0x3eca3877	0.39496204
12	0x3e66203b	0.22473232
13	0x3e8a8c65	0.27060238
14	0x3d21a269	0.039461527
15	0x3e7cf5bd	0.24703117
16	0xbec11a21	-0.37715247
17	0x3e84773f	0.25872228
18	0xbec8a37a	-0.39187223
19	0xbe94b172	-0.2904163
20	0x3be786d7	0.0070656347
21	0xbe6ac362	-0.22926095
22	0x3e8ff7a2	0.28118616
23	0x3e5074bb	0.20357029
24	0xbe516e54	-0.20452243
25	0x3e8cfaa9	0.2753499
26	0xbe4d5185	-0.20050628
27	0x3e99427b	0.29933533
28	0x3e734d9c	0.23760074
29	0xbdeeba9d	-0.116566874
30	0x3c822a10	0.015889198
31	0xbe89cabd	-0.2691249
32	0x3de7add2	0.113124505
33	0xbd653989	-0.055963073
34	0xbd8c8817	-0.068618946
35	0xbe11b8c8	-0.14230645
36	0x3e7a2b1f	0.24430512
37	0xbe40c062	-0.18823388
38	0xbe67fc6c	-0.22654885
39	0x3d61bc8f	0.055111464
40	0xbd30ea4a	-0.043192185
41	0xbea2756b	-0.31730208
42	0xbe1ba4bd	-0.15199561
43	0xbe4c62bc	-0.19959539
44	0x3e9405b3	0.28910598
45	0x3ec71b41	0.3888798
46	0xbe506952	-0.20352677
47	0xbd226f68	-0.039657027
48	0xbede0e84	-0.4337045
49	0x3ec6e9ee	0.3885035
50	0x3ea2b4a7	0.31778452
51	0xbe87cf64	-0.26525414
52	0xbe8c1875	-0.2736241
53	0x3d8d0428	0.06885558
54	0xbea03db8	-0.31297088
55	0x3ea0a677	0.31377003
56	0x3db80332	0.089849845
57	0xbde5535c	-0.1119754
58	0xbda85d61	-0.082209356
59	0xbd7e711b	-0.062119585
60	0x3e93d4f8	0.2887342
61	0x3ecb4223	0.39698896
62	0x3d2659d6	0.040613018
63	0x3d381acc	0.04494743
64	0x3e16c876	0.14724907
65	0x3dff265a	0.12458487
66	0x3e38c073	0.18042164
67	0x3e9a9533	0.30191955
68	0x3dec5722	0.11540057
69	0xbd7da2da	-0.061922885
70	0xbe07cfb6	-0.13262829
71	0xbe4cc208	-0.19995892
72	0xbe38e313	-0.18055372
73	0x3ec650f7	0.38733646
74	0x3eb4d52f	0.35318896
75	0xbcbdb965	-0.023159692
76	0x3e244015	0.1604007
77	0x3d227d47	0.039670255
78	0x3d915a93	0.07097354
79	0xbdf92198	-0.121646106
80	0xbe8af5bc	-0.27140605
81	0x3e56ab34	0.20963746
82	0xbe22c6c2	-0.15896133
83	0xbeaf44d8	-0.3423221
84	0xbe9bbc6e	-0.30417198
85	0xbd955790	-0.07292092
86	0x3eeb8d1c	0.46006095
87	0x3e7a07c1	0.2441702
88	0xbec1e285	-0.37868133
89	0x3ea23187	0.3167841
90	0xbe9a7ade	-0.30171865
91	0x3e41ad7b	0.18913834
92	0x3ed92e49	0.42418125
93	0xbde67887	-0.112534575
94	0xbe6f69ae	-0.23380157
95	0x3e87a187	0.26490423
96	0x3ec3f2e3	0.38271245
97	0xbea3672b	-0.31914648
98	0x3dca6cfe	0.0988407
99	0xbe09f5f9	-0.13472737
100	0xbce405b7	-0.027834756
101	0xbde19102	-0.11013986
102	0x3e84ad31	0.25913385
103	0xbb44561a	-0.0029958547
104	0xbd4b7dd7	-0.049680557
105	0x3ef2dd51	0.47434476
106	0xbdbfcf78	-0.093657434
107	0x3ebc9d8b	0.36838946
108	0xbdcff90d	-0.101549245
109	0x3da5cb6d	0.08095441
110	0x3e35170f	0.17684577
111	0x3e8f1de0	0.2795248
112	0x3e7081d3	0.23487024
113	0xbcdf64da	-0.02726977
114	0x3e1b9303	0.151928
115	0x3e4a7b5c	0.1977362
116	0x3ed0fa2b	0.40815863
117	0x3eb675d0	0.3563676
118	0xbe5807e9	-0.21096767
119	0x3ec77732	0.38958126
120	0xbe7bd957	-0.24594627
121	0xbd20eea7	-0.039290097
122	0x3eafe6ee	0.34355873
123	0x3ecea240	0.40358162
124	0x3e8cc1d0	0.27491617
125	0x3e91674a	0.28399116
126	0xbeb2bc26	-0.3490917
127	0x3ae7e671	0.0017692578
128	0xbc10a0c8	-0.008827396
129	0xbe66911f	-0.22516297
130	0x3d2a1d5c	0.041531906
131	0x3cb09401	0.021554949
132	0xbed2dcc5	-0.4118406
133	0xbd0fd4a3	-0.035114896
134	0x3eb010f9	0.3438795
135	0x3df1fe73	0.118161105
136	0xbe4245a0	-0.18971872
137	0xbbe6597b	-0.00702971
138	0x3e084ed1	0.13311316
139	0x3e9d8813	0.3076788
140	0x3e20b502	0.15694049
141	0x3f01b81f	0.5067157
142	0xbdda80ac	-0.106690735
143	0x3e22815a	0.15869656
144	0xbe53519b	-0.20636599
145	0xbec22a89	-0.37923077
146	0x3e795acc	0.24351043
147	0x3e331a5d	0.17490526
148	0xbe53b161	-0.20673133
149	0x3b2263e4	0.0024778778
150	0x3e0bfcbd	0.13670631
151	0x3ed149ba	0.4087656
152	0xbdf849dc	-0.121234626
153	0xbe53eb75	-0.20695288
154	0x3db46834	0.08808938
155	0x3eeb7cd9	0.4599369
156	0x3ea07142	0.3133641
157	0xbd9d952f	-0.0769447
158	0x3eba467a	0.36381894
159	0x3e4a7bf7	0.19773851
160	0x3d5d988b	0.054100554
161	0x3eda7705	0.4266893
162	0xbe543ca2	-0.20726255
163	0x3ea16337	0.31521007
164	0x3ec1b3a3	0.37832364
165	0x3d018cac	0.031628296
166	0x3e29ad3b	0.16569988
167	0x3db6ecd9	0.08931894
168	0x3db3ee87	0.0878573
169	0x3e582086	0.21106157
170	0xbef64af0	-0.48104048
171	0xbe124326	-0.14283428
172	0xbe89dd86	-0.2692682
173	0x3e7c09a8	0.24613059
174	0x3e84d031	0.25940087
175	0xbe80179a	-0.25018007
176	0xbdcdec45	-0.100548305
177	0xb9302dd0	-0.00016801734
178	0x3eb5c0c6	0.35498637
179	0xbe8a51df	-0.27015588
180	0x3c2f55d0	0.010701612
181	0x3dc6559d	0.09684298
182	0x3ec1271d	0.37725154
183	0xbdfdde57	-0.123959236
184	0x3eb99c05	0.36251846
185	0x3e835f0e	0.25658458
186	0xbee2193f	-0.44159886
187	0xbea72006	-0.3264162
188	0xbe8825ce	-0.26591343
189	0x3e881a31	0.26582482
190	0xbeda7c46	-0.42672938
191	0xbe51be7b	-0.20482819

fc.0.bias f4 [32]
0	0x3edbd9a3	0.4293948
1	0xbc193090	-0.009349957
2	0x3e9b280d	0.30303994
3	0xbeba528c	-0.36391103
4	0x3ece33d6	0.40273923
5	0x3e491503	0.19636922
6	0x3e197586	0.14986238
7	0x3eb98245	0.362322
8	0xbe8caa16	-0.27473515
9	0xbe1a91fd	-0.15094753
10	0x3ebf4cdf	0.37363335
11	0xbe4cd277	-0.20002161
12	0x3cab703d	0.020927543
13	0x3db0bd48	0.086298525
14	0x3d878617	0.066173725
15	0xbd8a2fe8	-0.06747419
16	0x3ec513b0	0.38491583
17	0xbddd3c7f	-0.10802554
18	0x3df8f050	0.12155211
19	0xbeaba84c	-0.33526838
20	0xbe71fce6	-0.2363163
21	0x3eb6b618	0.35685802
22	0x3cba09ec	0.02270981
23	0xbe601921	-0.21884586
24	0x3e97a490	0.2961774
25	0xbe98e0bd	-0.29858962
26	0xbeb479f0	-0.3524928
27	0xbecb07f5	-0.39654508
28	0x3d410a2e	0.04712885
29	0x3ec399c1	0.38203242
30	0x3ed84299	0.4223831
31	0xbeb3f3a7	-0.3514683

fc.3.weight f4 [16, 32]
0	0x3cdac0d4	0.026703276
1	0x3e0c4a60	0.13700247
2	0xbd9805bc	-0.07422969
3	0xbc8a7d30	-0.016905397
4	0x3d09abd0	0.03361112
5	0x3c94a055	0.018142859
6	0xbe16bb3c	-0.14719862
7	0x3dfe8aa2	0.12428786
8	0xbda071f1	-0.078342326
9	0xbbd562d5	-0.006512026
10	0x3dd8848e	0.10572158
11	0xbe174f40	-0.14776325
12	0xbe57a9c2	-0.21060851
13	0xbe241eda	-0.16027394
14	0x3cc00174	0.023438193
15	0xbe1f0506	-0.1552926
16	0xbe072afc	-0.13199991
17	0x3bbdeae8	0.0057958253
18	0x3b56510c	0.0032702116
19	0xbe1bd0b6	-0.15216336
20	0xbe0c3e6a	-0.13695684
21	0x3e307244	0.17231089
22	0xbdd0bf40	-0.10192728
23	0xbcef76a7	-0.029231383
24	0xbde93097	-0.11386221
25	0x3db1f074	0.08688441
26	0x3d0c197e	0.034204
27	0x3dedad92	0.116053715
28	0x3e68ec75	0.22746451
29	0x3e091350	0.13386273
30	0x3b09d228	0.0021029804
31	0x3d9a7568	0.07541925
32	0x3e2cdfae	0.16882202
33	0x3d461ea2	0.048369057
34	0x3de41b80	0.11138058
35	0xbdfe79b5	-0.124255575
36	0xbc60180a	-0.013677606
37	0xbe06ad73	-0.13152103
38	0xbddfffde	-0.10937475
39	0xbd476cf8	-0.048687905
40	0x3e5a14f1	0.21297051
41	0x3e589296	0.21149668
42	0x3e0390e8	0.12848246
43	0xbd940dd3	-0.07229199
44	0x3e1d49c0	0.15360165
45	0xbe2bc62c	-0.16774815
46	0x3d2d7404	0.04234697
47	0x3ce19b3b	0.02753984
48	0x3e3c2942	0.18375114
49	0x3dce7424	0.10080746
50	0xbd647e00	-0.055784225
51	0x3dd40cbd	0.10353992
52	0x3e7cd65e	0.2469115
53	0xbc2eaf18	-0.010661863
54	0x3d0c3e50	0.034239113
55	0x3d74a808	0.05973056
56	0x3e6d4365	0.2317024
57	0xbe8804f1	-0.2656627
58	0x3d01994e	0.031640343
59	0xbd648eb0	-0.05580014
60	0xbd954c24	-0.07289913
61	0x3df7510e	0.12076007
62	0x3e026564	0.1273399
63	0x3e038db6	0.12847027
64	0xbe2281db	-0.15869848
65	0x3dff201f	0.124572985
66	0xbdb8a31e	-0.09015487
67	0x3e2921e0	0.16516829
68	0xbe044b69	-0.12919392
69	0xbccb43f7	-0.024812682
70	0xbe240d46	-0.16020688
71	0xbe120080	-0.14258003
72	0x3d2a1654	0.0415252
73	0x3de27d56	0.11059062
74	0x3df0ee18	0.11764163
75	0xbd9739cc	-0.07384071
76	0xbe19ebef	-0.15031408
77	0x3d4f3030	0.050583065
78	0x3c854360	0.016267478
79	0xbd37c840	-0.044868708
80	0xbc56db62	-0.013113828
81	0xbe343a27	-0.17600308
82	0xbdbb3c64	-0.09142378
83	0x3e31a9ff	0.17350005
84	0xbe2073fe	-0.15669248
85	0xbdffaf36	-0.12484591
86	0xbd2638b8	-0.040581435
87	0xbc3e12c0	-0.01160115
88	0xbe2f1cc2	-0.17100814
89	0x3e0ca9c5	0.13736637
90	0x3d24f324	0.04027094
91	0x3de98092	0.11401476
92	0x3d8a1550	0.06742346
93	0xbd4419b0	-0.04787606
94	0x3abeeb68	0.0014566006
95	0xbd2511d8	-0.04030022
96	0x3b8631de	0.0040953
97	0xbd79a253	-0.06094582
98	0xbdda0ae8	-0.106466115
99	0xbcd20e09	-0.025641458
100	0x3e544f20	0.20733309
101	0xbda7a396	-0.081854984
102	0x3c03986c	0.008031946
103	0xbce9fb4b	-0.028562209
104	0xbd61439f	-0.05499613
105	0x3c5404a9	0.012940564
106	0x3e2a030d	0.16602726
107	0x3e0734d2	0.13203743
108	0xbe4568e4	-0.19278294
109	0x3dc9c72f	0.098524444
110	0xbd3f48c9	-0.046700273
111	0xbd992f5e	-0.07479738
112	0xbe023536	-0.12715611
113	0xbcc9454f	-0.024569182
114	0x3d975ae4	0.07390383
115	0x3db8a676	0.09016125
116	0xbdc2f16d	-0.095187046
117	0x3ded243d	0.115791775
118	0xbdb7d41d	-0.08976004
119	0xbe64ef26	-0.22356853
120	0xbdd49a5c	-0.10381004
121	0x3df7e082	0.12103368
122	0x3d7d2bbc	0.061809286
123	0x3d0ba1b6	0.034089766
124	0x3e5e12aa	0.21686807
125	0xbba22226	-0.0049479185
126	0xbdee8b1d	-0.116476275
127	0xbe18ef24	-0.14934975
128	0xbdc29d30	-0.095026374
129	0x3cc93bae	0.02456459
130	0x3d0addee	0.033903055
131	0xbe3aa0d6	-0.18225417
132	0x3daea49e	0.08527492
133	0x3e568ea2	0.20952848
134	0x3df8cf93	0.12148967
135	0x3e0e4cb4	0.13896447
136	0xbd907fb6	-0.07055609
137	0x3e823fd1	0.25439313
138	0xbd1fea42	-0.039041765
139	0xbdb407e2	-0.08790566
140	0x3e1a7825	0.15084894
141	0x3dc6c959	0.09706373
142	0x3e717d98	0.23583066
143	0xbce4c02d	-0.027923668
144	0xbdc19f95	-0.09454266
145	0xbd10990c	-0.035302207
146	0x3e413b00	0.18870163
147	0x3e20a6ee	0.15688679
148	0xbc82d694	-0.01597146
149	0xbcfd074f	-0.030887274
150	0x3e6f8913	0.23392133
151	0x3d6c5285	0.057695884
152	0x3c96e648	0.018420354
153	0x3d89d9a1	0.067309625
154	0x3e8cef3b	0.27526268
155	0xbcb276f7	-0.021785242
156	0xbe02f0cc	-0.12787169
157	0x3befe971	0.0073215296
158	0x3dd75848	0.10514885
159	0xbe0c6a40	-0.13712406
160	0x3d32c7ae	0.04364746
161	0x3e19d8a6	0.15024051
162	0xbd8bfa8a	-0.06834896
163	0x3dc183bf	0.09448957
164	0x3dece997	0.11567991
165	0xbc81c66e	-0.015841689
166	0x3e4404d9	0.19142474
167	0xbe57c49f	-0.21071099
168	0xbc08843c	-0.008332308
169	0xbca214a1	-0.019785227
170	0x3e7cb786	0.24679384
171	0x3b1df460	0.0024101958
172	0xbe0e3ed0	-0.13891149
173	0x3e2a33e3	0.16621356
174	0xbe470848	-0.19436753
175	0xbded012a	-0.11572488
176	0x3ddb6852	0.10713257
177	0xbda81819	-0.08207721
178	0x3d82d4f3	0.06388273
179	0xbcad233d	-0.021134967
180	0xbd9b27d7	-0.07575958
181	0x3d86c82b	0.06581148
182	0x3df1636f	0.117865436
183	0xbd418fee	-0.047256403
184	0x3d8299c3	0.06376984
185	0x3d5bb974	0.05364366
186	0xbe1cd83c	-0.15316862
187	0x3c689978	0.014196746
188	0x3e9694be	0.29410356
189	0x3e5a07c0	0.21292019
190	0xbde6ce7b	-0.11269852
191	0x3d6ef000	0.05833435
192	0x3ded56dc	0.11588833
193	0x3e341b12	0.17588452
194	0x3da48b93	0.08034434
195	0xbd3de0aa	-0.046356834
196	0x3dd70b9f	0.105002634
197	0xbc966d87	-0.018362774
198	0xbe2e7d34	-0.17039949
199	0xbce8228f	-0.028336791
200	0xbe37e4a2	-0.1795831
201	0x3d2bfc2d	0.04198854
202	0xbd03cb89	-0.032176528
203	0x3e1a4499	0.1506523
204	0xbdad4cc8	-0.084619105
205	0xbddb804f	-0.10717832
206	0xbdea68ad	-0.114457466
207	0x3d9f03df	0.0776441
208	0x3d4982bd	0.049196947
209	0xbdc4510a	-0.095857695
210	0x3cb04730	0.02151832
211	0xbe4b5eca	-0.19860378
212	0xbd082e44	-0.033247247
213	0x3d18c77c	0.037299618
214	0x3d894297	0.06702154
215	0xbe51a7fd	-0.20474239
216	0x3daf42eb	0.085576855
217	0x3d892d2b	0.06698068
218	0xbe2a913b	-0.16656964
219	0xbd5129fb	-0.051065426
220	0x3e243e04	0.16039282
221	0x3dc4f2de	0.09616636
222	0x3d5c4709	0.053778682
223	0x3e0315c3	0.1280127
224	0xbdbd2dc9	-0.092372485
225	0xbde733e3	-0.112891935
226	0x3daa020c	0.08301172
227	0x3d66d5e8	0.05635634
228	0xbdc8f905	-0.09813122
229	0xbc411a88	-0.011786111
230	0xbd498441	-0.049198393
231	0xbe358d94	-0.17729789
232	0x3e03de8e	0.12877867
233	0x3dd87d3c	0.105707616
234	0xbcaf3746	-0.021388661
235	0x3de064fa	0.1095676
236	0xbe307314	-0.17231399
237	0x3bc79434	0.0060906652
238	0x3e02071b	0.12698023
239	0xbd76700c	-0.06016545
240	0x3d3c54e7	0.045979407
241	0x3da9e5c1	0.08295775
242	0x3d9b8696	0.075940296
243	0x3d960d83	0.07326796
244	0x3e0202fb	0.1269645
245	0xbddf8feb	-0.10916122
246	0x3db9b0b6	0.09066908
247	0xbdbcc317	-0.09216898
248	0xbdd7c567	-0.105356984
249	0xbd925c1b	-0.07146474
250	0x3cbff12c	0.02343043
251	0x3dcebd41	0.10094691
252	0x3e1f0a6f	0.15531324
253	0xbe3eabe3	-0.18620257
254	0xbb98a793	-0.0046586483
255	0xbe163bf6	-0.14671311

fc.3.bias f4 [16]
0	0x3dbfeba6	0.09371118
1	0x3e468504	0.19386679
2	0xbe0fd1cd	-0.14044876
3	0x3bfebaec	0.0077737477
4	0xbb9dcb45	-0.0048154914
5	0xbcd542bd	-0.0260328
6	0xbe131b57	-0.14365898
7	0xbe27900f	-0.16363548
8	0x3de215bf	0.11039304
9	0xbdd89687	-0.10575586
10	0xbd3a9520	-0.045552373
11	0x3d92cd3b	0.07168051
12	0xbd7da620	-0.061926007
13	0xbc658113	-0.0140078245
14	0xbe092ece	-0.13396761
15	0xba6aa758	-0.0008951328

fc.6.weight f4 [1, 16]
0	0xbe4dace3	-0.20085482
1	0x3e7618be	0.24032876
2	0xbd97d4a1	-0.074136026
3	0xbe960b56	-0.29305524
4	0x3db7c7fc	0.08973691
5	0xbdcfb215	-0.10141388
6	0xbe25e117	-0.16199146
7	0x3e4721c2	0.19446471
8	0x3e3343b6	0.17506298
9	0x3e65ac86	0.22429094
10	0x3e1f4a31	0.15555646
11	0xbe57f24b	-0.21088521
12	0x3e7daff2	0.24774149
13	0x3e5233f7	0.20527636
14	0x3e5ba822	0.21450856
15	0xbe13b002	-0.1442261
